colab/weights/actor_checkpoint.pth (torch_old, 548262 bytes, 10 tensors)

fc1.weight f4 [400, 33]
0	0xbe578750	-0.21047711
1	0x3fd54ddd	1.6664387
2	0x40128360	2.2892685
3	0x3de7ace4	0.11312273
4	0x3e848244	0.25880635
5	0xbe7fcbd8	-0.24980104
6	0x3f9302cd	1.148523
7	0xbf2d1199	-0.67604977
8	0x400e00d1	2.2187998
9	0xc01d3d01	-2.4568484
10	0xbf861fca	-1.0478451
11	0xbee693e5	-0.4503471
12	0x4024e5c2	2.5765233
13	0xbe82976d	-0.25506154
14	0xbf39807c	-0.72461677
15	0x3dbaeedb	0.09127589
16	0xbdc1f140	-0.09469843
17	0xbe4a2ca0	-0.19743586
18	0xbe90b8f7	-0.28266117
19	0x3e678107	0.22607814
20	0x3e04081e	0.12893721
21	0x3e997389	0.2997096
22	0x3e4363f1	0.19081093
23	0xbf1e03e0	-0.6172466
24	0xbf9e80f4	-1.2383103
25	0x3f0ffe3e	0.5624732
26	0xbe03a358	-0.1285528
27	0xbc4658d0	-0.0121061355
28	0xbfea4eb7	-1.8305272
29	0x3b4c5850	0.0031180568
30	0x3cc3d686	0.023906004
31	0xbd4bad3d	-0.04972576
32	0xbf8b2fac	-1.0873923
33	0xbf1db447	-0.61603206
34	0xc0257449	-2.5852225
35	0x3f21303e	0.62964237
36	0xbde5a114	-0.11212364
37	0xbbace0aa	-0.0052758055
38	0x3d964528	0.07337409
39	0x3f7bee57	0.9841055
40	0x3ed3dc44	0.41378987
41	0xbf13b9cc	-0.5770538
42	0xbf65c082	-0.8974687
43	0x3bf693a5	0.007524925
44	0x3d6a6eb8	0.057234496
45	0xbd9c0958	-0.0761897
46	0xbfa3cf6d	-1.2797676
47	0x402d3a85	2.7066967
48	0x3eef88e6	0.46784133
49	0x3ec20ba9	0.3789952
50	0xbda7f869	-0.08201677
51	0xbbaa160e	-0.0051906174
52	0x3e6a37b5	0.22872813
53	0xbe3621e6	-0.17786369
54	0x3d521a75	0.051294763
55	0x3da07fbb	0.07836863
56	0xbea16af0	-0.315269
57	0x3f2a4cad	0.6652325
58	0xbef42654	-0.47685492
59	0x3fb3e841	1.4055253
60	0x3cae8f8a	0.02130868
61	0xbfa01a79	-1.2508079
62	0x3bd55440	0.0065102875
63	0x3c9ebd4a	0.01937737
64	0xbd183fb6	-0.037170134
65	0xc07ea0be	-3.978561
66	0xbe06afab	-0.1315295
67	0xbee2b541	-0.4427891
68	0xbdad1b01	-0.08452416
69	0x3f0aba18	0.54190207
70	0x3ff6a924	1.9270368
71	0xbf4e9a1d	-0.8070391
72	0xbff2c33c	-1.8965831
73	0x3e81a5cb	0.25321802
74	0x3cb01d01	0.021498205
75	0xc02336c2	-2.5502172
76	0xc016ad90	-2.3543434
77	0x3f02cec1	0.5109673
78	0xbf12ce89	-0.573464
79	0xbd866cf9	-0.06563754
80	0x3f3560fc	0.7085111
81	0xbf8ab3e2	-1.0836146
82	0x3fe33b3f	1.7752455
83	0xbe46769c	-0.19381183
84	0x3ead9467	0.33902285
85	0x3fcdba7c	1.6072536
86	0x3e931df1	0.2873378
87	0x3f6fc1f7	0.9365534
88	0xbf0d8b71	-0.55290896
89	0xc003922f	-2.0557973
90	0x3fbee920	1.4914894
91	0xbf3fb99d	-0.748926
92	0x3ec0e092	0.37671334
93	0x3cb9ebd1	0.022695454
94	0x3ef8b27b	0.4857367
95	0xbd3fa5b8	-0.0467889
96	0xbd3c97be	-0.04604315
97	0x3bf85870	0.007578902
98	0xbf83665f	-1.0265616
99	0x40695808	3.645998
100	0xbf1a1ee3	-0.6020338
101	0xbc54bfa2	-0.012985142
102	0x3e006b36	0.12540898
103	0x401eac62	2.4792714
104	0xbf76d22e	-0.9641446
105	0xbf989228	-1.1919603
106	0xbe2d03e6	-0.16896018
107	0xbe8127cf	-0.25225684
108	0x3edee374	0.43532908
109	0x3eb8416c	0.35987413
110	0xbf0fc753	-0.5616352
111	0x3e1b43aa	0.1516253
112	0xbfc1f259	-1.5152084
113	0xbfaf658a	-1.3702862
114	0xbf3a559b	-0.72786874
115	0x3f56f802	0.8397218
116	0xbd82c842	-0.063858524
117	0x3f48b499	0.7840057
118	0x3f014f11	0.5051127
119	0xbd8c2ab9	-0.06844086
120	0xbec2f7b7	-0.38079616
121	0xbe73030b	-0.2373163
122	0x3d62da2e	0.055383854
123	0x3d84ef89	0.06491
124	0x3d80ccac	0.06289038
125	0x3e9b987e	0.3038978
126	0xbc160266	-0.009155845
127	0x3f695da4	0.9115851
128	0xbcc2b003	-0.02376557
129	0x3bed0a5c	0.007233901
130	0xbca3e3ad	-0.020006025
131	0xc0673a24	-3.6129236
132	0xbf9044a1	-1.1270944
133	0xbf2e93f3	-0.681945
134	0xbd431ede	-0.04763686
135	0x3ddc9359	0.10770292
136	0xbfc1a51a	-1.512851
137	0xbf7c5122	-0.985613
138	0x3da1858b	0.078867994
139	0x3e969178	0.2940786
140	0xbf97de6f	-1.1864756
141	0x3f0093ee	0.5022572
142	0xbe1e8d8e	-0.15483686
143	0x3c7c68f7	0.015405885
144	0xbefaff33	-0.49022827
145	0x3ffdc203	1.9824833
146	0xbead8db0	-0.3389716
147	0xbf0bb4a6	-0.5457252
148	0xbe1a9b9f	-0.15098427
149	0xbf3590b6	-0.70923936
150	0x3d9134f5	0.07090179
151	0xbf030f55	-0.5119527
152	0x3e3c5ea1	0.18395473
153	0x3f3184fe	0.69343555
154	0xbd1945dc	-0.03742014
155	0x3f31cfdc	0.69457793
156	0x3f77db82	0.9681932
157	0x3f1fb67d	0.6238783
158	0xbf4a43d6	-0.7900976
159	0xbc977f90	-0.018493444
160	0x3e45285a	0.19253674
161	0xbc931bd6	-0.01795761
162	0x3cbd57f2	0.023113225
163	0x3d3828d5	0.044960815
164	0x40dc0936	6.8761244
165	0x40075d3a	2.115065
166	0x3fe18201	1.7617799
167	0xbf65898f	-0.8966302
168	0x3e7f3e5c	0.24926132
169	0x3ec2c44b	0.38040385
170	0x3d138982	0.03601981
171	0x3e901f17	0.2814872
172	0x3e043b1b	0.12913172
173	0x3f1989c6	0.5997585
174	0xbe99d0fb	-0.30042252
175	0x3dc93fa6	0.09826593
176	0xbb94671d	-0.0045288936
177	0x3e4ebbfe	0.20188901
178	0xc0034206	-2.0509048
179	0xc033cbe2	-2.809319
180	0x3f8c675f	1.0969046
181	0x3ce8232d	0.028337086
182	0xbd264e8b	-0.04060225
183	0xbe9e8328	-0.3095944
184	0xbd2e8710	-0.042609274
185	0xbd7b1a8e	-0.06130462
186	0x3cf2908f	0.029609947
187	0xbccf1734	-0.025279619
188	0x3e1b92ca	0.15192714
189	0xbf068e26	-0.5256065
190	0x3e4b08ff	0.1982765
191	0x3fa199d8	1.2625074
192	0x3d1b949e	0.03798353
193	0xbec517c2	-0.38494688
194	0x3c2f9a94	0.010718007
195	0x3c8eb258	0.017419025
196	0xbc955a40	-0.018231511
197	0x3f75e98c	0.9605949
198	0xbfc26918	-1.5188322
199	0x3fea0796	1.8283565
200	0x3e780dd2	0.24224022
201	0x3dfc489f	0.12318539
202	0xbe096f49	-0.13421358
203	0xbe88cdfe	-0.2671966
204	0xbd2606fc	-0.040534005
205	0x3d82fcb8	0.063958585
206	0x3eab20b3	0.33423385
207	0xbf2bcbcc	-0.67107844
208	0xbe6c095a	-0.23050442
209	0x3e90910b	0.2823566
210	0x3d7a0855	0.061043102
211	0x40262a17	2.596319
212	0xc0052573	-2.0804107
213	0xbf369a40	-0.71329117
214	0x3e7898e5	0.24277075
215	0x3dc3010c	0.09521684
216	0xbddc13a2	-0.10745932
217	0x3d5dad93	0.05412061
218	0xbd3e6615	-0.04648407
219	0xbe297226	-0.1654745
220	0xbc9bea63	-0.019032663
221	0x3ead6e61	0.33873275
222	0xbe792654	-0.24331027
223	0xbe128516	-0.14308581
224	0xbfbd6506	-1.4796455
225	0x3d23415f	0.039857265
226	0x3ea4fd7d	0.32224646
227	0xbcfb8e0a	-0.030707378
228	0xbcf09161	-0.029366197
229	0xbcab45cd	-0.020907307
230	0xc00d4471	-2.2073023
231	0xbe8a5e01	-0.27024844
232	0x3f449d37	0.7680239
233	0x3f8c0cdd	1.0941426
234	0x3d09c21d	0.033632386
235	0xbf03a9c6	-0.5143093
236	0x3e3eb61f	0.18624161
237	0x3e1b85ed	0.15187807
238	0xbeeaafe8	-0.4583733
239	0x3c7550c3	0.014972868
240	0xbf23269c	-0.6373079
241	0x3e012507	0.12611781
242	0x3dec2f27	0.11532431
243	0x3c0549a0	0.008135229
244	0x3e126739	0.14297189
245	0x3e3100df	0.17285489
246	0xbeb8bbbb	-0.36080727
247	0xbe4e9135	-0.2017258
248	0x3e9ccd1d	0.3062524
249	0x3ea03a46	0.3129446
250	0x3bf540dd	0.007484539
251	0x3e59020d	0.21192189
252	0xbdca62b2	-0.09882106
253	0x3dec06b9	0.1152472
254	0x3e7c546f	0.24641584
255	0x3de2c71a	0.11073132

fc1.bias f4 [400]
0	0x3cceb900	0.0252347
1	0x3e29e3b8	0.16590774
2	0x3d7bddc5	0.061490793
3	0x3dcb36a8	0.09922534
4	0x3d90da97	0.07072943
5	0xbd61ba76	-0.055109464
6	0x3d2abb63	0.041682612
7	0xbdf69da6	-0.12041788
8	0x3e249ac0	0.16074657
9	0x3c21e08d	0.009880197
10	0x3e0a4091	0.13501193
11	0xbdf99ff9	-0.121887155
12	0xbe23ed3a	-0.16008464
13	0x3cac3652	0.021021996
14	0xbcb50a78	-0.022099718
15	0xbd903550	-0.070414186
16	0x3dba61d8	0.091006935
17	0xbde79004	-0.11306766
18	0x3e1c33f4	0.15254194
19	0xbe2e35ac	-0.17012662
20	0x3d11e953	0.035622906
21	0xbdd0cfde	-0.101958975
22	0x3d1aa819	0.037757967
23	0x3e2f5558	0.171224
24	0xbca91ad5	-0.020642677
25	0x3d25ca2a	0.040476
26	0xbd8c72b2	-0.06857814
27	0xbdb6836b	-0.08911785
28	0xbe187b07	-0.14890681
29	0x3dcdfceb	0.10058006
30	0xbae41b7a	-0.0017403208
31	0x3d7a75cb	0.061147492
32	0xbe08553d	-0.13313766
33	0xbe1472c3	-0.14496903
34	0xbe21fff6	-0.15820298
35	0xbdcdc7d2	-0.10047878
36	0xbcb96bd0	-0.022634417
37	0xbcd71dbd	-0.026259298
38	0x3d9d0941	0.07667781
39	0xbdac54d7	-0.084146194
40	0x3e2dc0f7	0.16968141
41	0xbda23f95	-0.079222836
42	0xbe26bb52	-0.16282395
43	0x3e0679e2	0.13132432
44	0xbde5ebc0	-0.11226606
45	0x3c873bc7	0.016507996
46	0xbc8a0a9f	-0.016850768
47	0xbd150430	-0.036380947
48	0x3848968f	4.7823934e-05
49	0xbe2f2edb	-0.17107718
50	0x3e209545	0.15681942
51	0xbde7af7e	-0.11312769
52	0x3dd9ebfc	0.106407136
53	0xbdd402b1	-0.10352076
54	0xbd318131	-0.043336097
55	0xbb887609	-0.0041644615
56	0xbd8b9ff5	-0.06817619
57	0xbd9aa996	-0.07551877
58	0xbe159cc0	-0.14610577
59	0xbdf4e807	-0.11958318
60	0xbc04d8ec	-0.008108359
61	0xbd4e11d1	-0.05030996
62	0xbcc83e56	-0.024443787
63	0x3d366de1	0.044538382
64	0xbcb51b8f	-0.022107868
65	0xbe286eda	-0.16448537
66	0xbd831e89	-0.064023085
67	0x3d5c6b09	0.053813014
68	0x3d808fd0	0.0627743
69	0x3dac84cc	0.084237665
70	0x3c1fba6b	0.009749035
71	0x3df458db	0.1193101
72	0xbdf369ea	-0.11885436
73	0xbe15c2f8	-0.14625156
74	0xbd3b78c7	-0.04576948
75	0x3ac92333	0.0015345573
76	0x3e01af30	0.12664485
77	0xbdcddbfd	-0.10051725
78	0xbdf94fa4	-0.12173393
79	0xbb9645ff	-0.004585981
80	0x3d34a334	0.044100955
81	0xbe223f52	-0.15844467
82	0xbd902edf	-0.0704019
83	0xbe0c18a3	-0.13681273
84	0x3d261a01	0.040552143
85	0x3c82e0de	0.015976366
86	0xbe1f13d5	-0.15534909
87	0xbded9762	-0.116011396
88	0x3c02f65d	0.007993308
89	0xbd3cb540	-0.04607129
90	0xbe09b62c	-0.134484
91	0xbd579efd	-0.052641857
92	0xbe23cea9	-0.15996803
93	0xbca06b40	-0.01958239
94	0xbca4139e	-0.020028885
95	0x3c18f81e	0.0093364995
96	0x3c6e2d1e	0.014537124
97	0xbcfa0af1	-0.030522795
98	0x3e0e2ad4	0.13883525
99	0xbd7ee308	-0.062228233
100	0x3da2102a	0.07913239
101	0x3d86e91d	0.065874316
102	0xbcaf5216	-0.021401446
103	0xbe02a9e3	-0.12760119
104	0xbe15ee2c	-0.14641637
105	0x3d462957	0.04837927
106	0x3d59d59a	0.053182222
107	0x3dd89360	0.105749846
108	0xbd9d338c	-0.076758474
109	0x3e0fe6ef	0.14052938
110	0x3e318c62	0.17338708
111	0xbce27a08	-0.02764608
112	0xbd8aedbe	-0.06783627
113	0xbd606306	-0.054781936
114	0xbe1b0c2c	-0.15141362
115	0x3dcd26c0	0.100171566
116	0x3c9e5658	0.019328281
117	0x3da4b9a5	0.080432214
118	0x3de59f5c	0.11212036
119	0xbd973d0e	-0.07384692
120	0x3aef11c4	0.0018239547
121	0x3e1010a0	0.14068842
122	0xbe09ae40	-0.13445377
123	0x3e1c938a	0.15290657
124	0x3db966c3	0.09052803
125	0xbd61aa44	-0.05509402
126	0xbe1169ed	-0.14200564
127	0x3dbd7152	0.0925013
128	0x3daad50c	0.08341417
129	0xbda14b06	-0.07875638
130	0x3da9205f	0.082581274
131	0x3d539e6c	0.051664755
132	0x3e2f4b87	0.17118655
133	0x3db5ae87	0.08871179
134	0x3cdb5595	0.026774207
135	0xbe30e8f1	-0.1727636
136	0x3e111311	0.1416743
137	0x3e19110d	0.1494791
138	0xbd45bd7f	-0.04827642
139	0xbc6208e7	-0.013796068
140	0xbbd7763b	-0.0065753735
141	0xbc3dd192	-0.01158561
142	0x3dc002f2	0.09375562
143	0x3cc003fb	0.023439398
144	0xbe1b3bf4	-0.15159589
145	0x3d661ae8	0.056178004
146	0xbdda3ca5	-0.10656098
147	0x3d4d4d1c	0.050122365
148	0x3d9b5ad8	0.075856864
149	0xbdaa55d8	-0.08317155
150	0x3df1d45f	0.11808085
151	0x3b90a52f	0.0044142227
152	0xbdb3671a	-0.087598994
153	0x3e18d856	0.14926276
154	0x3de377cf	0.11106836
155	0x3e024780	0.12722588
156	0xbdf59f04	-0.119932204
157	0xbe07bd4d	-0.13255806
158	0xbe1cb7fb	-0.15304558
159	0x3de6b733	0.11265411
160	0x3dcff567	0.10154229
161	0xbdd8d0c3	-0.10586693
162	0x3d8cf8ba	0.06883378
163	0x3d0f2d89	0.034955535
164	0xbd975050	-0.07388365
165	0x3bd0b4d5	0.006369213
166	0xbdd71f93	-0.10504069
167	0xbd50137e	-0.05079984
168	0x3d8c489b	0.06849786
169	0x3cc914d3	0.024546063
170	0xbe04983d	-0.129487
171	0x3d32a4dc	0.043614253
172	0xbd0e0b9c	-0.03467904
173	0xbe02ec09	-0.12785353
174	0xbe24ffd1	-0.16113211
175	0x3bf6c845	0.007531198
176	0xbe0371b2	-0.1283634
177	0xbdda2b3c	-0.106527776
178	0x3d2bafc8	0.041915685
179	0x3c2ed8cf	0.010671808
180	0xbda16680	-0.078808784
181	0x3cdf0d71	0.027228089
182	0x3db36d12	0.08761038
183	0xbd8974ce	-0.06711732
184	0xbd7f7836	-0.0623705
185	0x3cfed0d8	0.031105444
186	0x3d2f52fe	0.042803757
187	0x3d77bce2	0.060482867
188	0x3df20032	0.118164435
189	0xbc3dd096	-0.011585375
190	0x3d6c0f0c	0.057631537
191	0xbdd00302	-0.10156824
192	0xbcb54d80	-0.022131681
193	0x3e03fba3	0.1288896
194	0xbe2c3f62	-0.16821054
195	0xbdea8a43	-0.114521526
196	0xbe1a1d06	-0.15050134
197	0x3e146f61	0.14495613
198	0xbca0d36f	-0.01963207
199	0x3e234bb6	0.1594685
200	0xbdc0a9f2	-0.094074145
201	0xbd4327fe	-0.04764556
202	0x3de507fa	0.11183162
203	0xbe318291	-0.17334963
204	0xbe2cee99	-0.16887893
205	0xbdee79d5	-0.11644331
206	0x3b44ffc1	0.0030059668
207	0xbe24093e	-0.1601915
208	0x3d0409c4	0.032235876
209	0x3e16541c	0.14680523
210	0xbd117527	-0.035512116
211	0xbcfbc656	-0.030734222
212	0xbe1d01da	-0.15332738
213	0xbd154746	-0.036444925
214	0x3c720586	0.014771825
215	0x3d126b74	0.035747007
216	0xbd688edc	-0.056776866
217	0xbdd974d3	-0.106179856
218	0xbdbbd06c	-0.09170613
219	0x3df57ffd	0.119873025
220	0xbdc1061e	-0.09424995
221	0x3c5d8cf8	0.013522379
222	0xbcfe3eee	-0.031035867
223	0xbd8ece4a	-0.0697294
224	0xbbfdfc15	-0.007750998
225	0x3e06eb3d	0.13175674
226	0x3e06fcfe	0.13182446
227	0xbd156316	-0.03647145
228	0xbd0f0668	-0.03491822
229	0xbdc7cfcc	-0.09756431
230	0xbda5b7da	-0.080917075
231	0xbcf16e91	-0.029471667
232	0x3e047b35	0.12937625
233	0x3ccaa200	0.02473545
234	0xbe18bfdf	-0.14916943
235	0xbd35f2ca	-0.044420995
236	0xbe19be6e	-0.1501405
237	0x3e248866	0.16067657
238	0x3c855b9c	0.016279034
239	0xbd3576c7	-0.044302728
240	0x3d8eff2e	0.069822654
241	0xbe26f765	-0.16305311
242	0xbd6bed5b	-0.057599407
243	0x3c84f86f	0.016231744
244	0x3e00e035	0.12585528
245	0x3e10f646	0.14156446
246	0xbbbdb927	-0.005789894
247	0xbe31f831	-0.17379834
248	0x3cfffabe	0.031247493
249	0xbdc9304e	-0.098236665
250	0x3e20e7e2	0.15713456
251	0xbd402dc8	-0.04691866
252	0xbd3ee6aa	-0.046606697
253	0xbcda8c39	-0.026678191
254	0x3e251487	0.16121112
255	0x3d9caa9f	0.07649731

bn1.weight f4 [400]
0	0x3f6311cb	0.88699025
1	0x3f34ff50	0.70702076
2	0x3f43f754	0.7654927
3	0x3f221617	0.63314956
4	0x3f028f46	0.5099987
5	0x3f061b49	0.52385384
6	0x3f450504	0.7696078
7	0x3f80942e	1.0045221
8	0x3faeeab4	1.3665376
9	0x3f1ea108	0.61964464
10	0x3f72fda8	0.949183
11	0x3f4c17c1	0.79723746
12	0x3f031634	0.51205754
13	0x3f833f3d	1.0253674
14	0x3f164e3c	0.58713126
15	0xbab7a63c	-0.0014011334
16	0x3f79ee87	0.9762959
17	0x3f6aff0b	0.91795415
18	0x3b699a24	0.0035644853
19	0x3ee87ea3	0.45409116
20	0x3eeb3aa8	0.4594319
21	0x3f71c624	0.94442964
22	0x3f2c67e2	0.6734601
23	0x3f8411a9	1.031789
24	0x3edbc056	0.42920178
25	0x3f76647d	0.9624708
26	0x3f35226c	0.7075565
27	0x3f25c5f5	0.64755183
28	0x3f347c31	0.70502
29	0x3ee543a7	0.44778177
30	0x3f1cbcd9	0.6122566
31	0x3f544b26	0.8292717
32	0x3f77936f	0.9670934
33	0x3f424508	0.75886583
34	0x3f2096c1	0.6273003
35	0x3f2df41a	0.67950594
36	0xba9c24e8	-0.0011912854
37	0x3f3c9ab0	0.73673534
38	0x3f03842a	0.5137354
39	0x3ea10ea4	0.31456482
40	0x3f18d06e	0.5969304
41	0x3f406b64	0.75163865
42	0x3f7fe056	0.99951684
43	0x3f603cfe	0.87593067
44	0x3f8e6bed	1.1126686
45	0x3f03b364	0.51445603
46	0x3eb615b3	0.3556343
47	0x3f2c084f	0.6720018
48	0x3f2362cf	0.63822645
49	0x3f5e04f9	0.8672634
50	0x3f8c334d	1.0953156
51	0x3f208f02	0.6271821
52	0x3f0ade7a	0.5424572
53	0x3f1a84e3	0.6035902
54	0x3f3d71be	0.7400168
55	0x3efe5ab2	0.4967857
56	0x3f90d6ab	1.1315511
57	0x3f0fe187	0.562035
58	0x3f4c083b	0.7970006
59	0x3e347401	0.17622377
60	0x3f072734	0.52794194
61	0x3f72ceac	0.94846606
62	0x3f8624fa	1.0480034
63	0x3f22fe45	0.63669235
64	0x3f3cb60e	0.73715293
65	0x3ef7fb49	0.48433903
66	0x3f21e617	0.63241714
67	0x3f46ca58	0.776525
68	0x3eed0342	0.46291548
69	0xbacf234c	-0.0015803366
70	0x3f462c47	0.7741131
71	0x3f576fa6	0.84154737
72	0x3f6003ba	0.87505686
73	0x3f2036e5	0.6258376
74	0x3f5b9f49	0.85789925
75	0x3f4fde9e	0.8119906
76	0x3f6ea90c	0.93226695
77	0x3f4cecf3	0.80049056
78	0x3f9251a3	1.1431164
79	0x3f18e4ba	0.5972401
80	0x3f0e0559	0.5547691
81	0x3eec1dc5	0.46116462
82	0x3f74b0b5	0.95582134
83	0x3f3992ea	0.724898
84	0xbf3dcba2	-0.74138844
85	0x3f46aaf2	0.7760459
86	0x3fa6091a	1.2971528
87	0x3f182c34	0.5944245
88	0x3f3b5772	0.73180306
89	0x3ef8bdee	0.48582405
90	0x3f9b25b8	1.2120886
91	0x3fa01ac7	1.2508172
92	0x3f69e8f0	0.9137106
93	0x3f15503c	0.5832555
94	0x3f7dc90e	0.9913491
95	0x3f61414b	0.87990254
96	0x3f67bf22	0.9052602
97	0x3f1adc36	0.60492265
98	0x3f156c5f	0.58368486
99	0x3f647a92	0.8924953
100	0x3f725eff	0.946762
101	0x3eba7fe1	0.3642569
102	0x3edf7ab8	0.43648314
103	0x3f4cc8ac	0.799937
104	0x3f45cff5	0.7727044
105	0x3f16da9b	0.58927315
106	0x3ee6db74	0.45089304
107	0x3eb6d6ad	0.3571066
108	0x3f4bc677	0.7959971
109	0x3f70f201	0.9411927
110	0x3f38828d	0.72074205
111	0x3f17dcb5	0.5932115
112	0x3f5aeeef	0.85520834
113	0x3f6a82aa	0.9160563
114	0x3f2faa09	0.6861883
115	0x3f47665b	0.7789056
116	0x3fa773e3	1.3082241
117	0x3f3f516d	0.7473362
118	0x3f7befa0	0.98412514
119	0x3f202346	0.62553823
120	0x3f2c9257	0.67410797
121	0x3f0c7156	0.54860437
122	0x3f41c348	0.756886
123	0x3f40ef34	0.75364995
124	0x3f213705	0.6297458
125	0x3f40f85d	0.7537897
126	0x3f66e7a9	0.90197235
127	0x3f7fb972	0.9989234
128	0x3f201317	0.6252913
129	0x3eb7ac1b	0.35873494
130	0x3f7027db	0.93810815
131	0x3c878c82	0.016546492
132	0x3f0ecdb0	0.55782604
133	0x3f24b798	0.6434264
134	0x3f85e514	1.0460534
135	0x3f919f72	1.1376784
136	0x3f315275	0.69266444
137	0x3ef7cd2c	0.4839872
138	0x3efa30b4	0.48865283
139	0x3f4e11ed	0.804961
140	0x3f58df32	0.8471557
141	0x3fa32342	1.2745135
142	0x3f74c185	0.9560779
143	0x3f426774	0.75939107
144	0x3f523c4b	0.8212325
145	0x3f3b20be	0.73096836
146	0x3f9b2f25	1.2123762
147	0x3f645a30	0.89200115
148	0x3f7428e0	0.9537487
149	0x3f958a9a	1.1682923
150	0x3f40a0a6	0.7524513
151	0x3f1f39a3	0.6219732
152	0x3ecd9d43	0.40159044
153	0x3f33fcbe	0.7030753
154	0x3f2fcbd6	0.68670404
155	0x3eef3149	0.4671729
156	0x3f3724ce	0.71540534
157	0x3f28d480	0.6594925
158	0x3f2bc815	0.67102176
159	0x3f4ce67c	0.8003919
160	0x3f302a8a	0.6881491
161	0x3f2a9876	0.66638887
162	0x3f4d4ffc	0.8020017
163	0x3f38ed5c	0.7223718
164	0x3f8eee08	1.1166391
165	0x3f5b5e25	0.8569053
166	0x3f233c4c	0.6376388
167	0x3f741e57	0.95358795
168	0x3f223cb3	0.6337387
169	0x3f0bc780	0.5460129
170	0x3f2c1aa8	0.67228174
171	0x3f683fa3	0.907221
172	0x3e914562	0.28373247
173	0x3f189951	0.5960894
174	0x3f97890f	1.1838702
175	0x3f00641c	0.50152755
176	0x3ef7da47	0.4840872
177	0x3f1335bd	0.57503873
178	0x3e0cb176	0.13739571
179	0x3f643682	0.8914567
180	0x3f25012f	0.6445493
181	0x3f1e6990	0.61879826
182	0x3f745802	0.9544679
183	0x3f274012	0.6533214
184	0x3fab4362	1.3379939
185	0x3f171743	0.5901987
186	0x3f51a56b	0.8189303
187	0x3f9129a4	1.1340833
188	0x3f967f66	1.1757629
189	0x3f40189a	0.7503754
190	0x3f3c32f7	0.73515266
191	0x3f591491	0.84797007
192	0x3f3e0054	0.7421925
193	0x3f2b6321	0.66948134
194	0x3f9280ad	1.1445519
195	0x3f103218	0.56326437
196	0x3f0d5110	0.55201817
197	0x3f205aca	0.62638533
198	0x3ec2437b	0.3794211
199	0x3efd01df	0.4941549
200	0x3f22a66a	0.6353518
201	0x3f606aa7	0.8766274
202	0x3f56d9db	0.8392617
203	0x3f2942bb	0.6611745
204	0x3fd0d43a	1.6314766
205	0x3f492907	0.7857823
206	0x3f383ed2	0.71970856
207	0x3ea8e837	0.32989666
208	0x3ec43c03	0.38327035
209	0x3f45c6f6	0.77256715
210	0x3f8e56b9	1.1120216
211	0x3f4d0094	0.8007901
212	0x3e877608	0.26457238
213	0x3f0a01b5	0.53908855
214	0x3f030d4f	0.5119218
215	0x3f0e7a09	0.5565496
216	0x3f8692ab	1.051351
217	0x3ec24683	0.3794442
218	0x3f4fdfb9	0.8120075
219	0x3f127986	0.5721668
220	0x3f70dc74	0.94086385
221	0x3f25d04b	0.64770955
222	0x3f8bcd06	1.0921943
223	0x3f889bf3	1.0672592
224	0x3f5ffd00	0.8749542
225	0x3f2a8307	0.6660618
226	0x3e655e31	0.22399212
227	0x3f33c8eb	0.7022845
228	0x3ed29f0f	0.41136977
229	0x3f7ca230	0.9868498
230	0x3f4be5ba	0.7964741
231	0x3f8f33a6	1.1187637
232	0x3f1d4c34	0.614444
233	0x3e9cb301	0.3060532
234	0x3f3cce80	0.73752594
235	0x3f2b89dd	0.6700724
236	0x3f00291d	0.50062734
237	0x3f51bac2	0.81925595
238	0x3f49aca5	0.7877906
239	0x3f7514b9	0.95734745
240	0x3f2bb05d	0.67065984
241	0x3f954f0c	1.1664748
242	0x3f2d8222	0.6777669
243	0x3f2af850	0.66785145
244	0x3f3b7e50	0.7323961
245	0x3f0955af	0.5364637
246	0x3f26647e	0.6499709
247	0x3f3a742e	0.72833526
248	0x3f98e11a	1.1943696
249	0x3f05c4f4	0.5225365
250	0x3f3b6055	0.73193866
251	0x3f591188	0.84792376
252	0x3f6ece9c	0.9328401
253	0x3f91e639	1.1398383
254	0x3f41b239	0.7566257
255	0x3efbabda	0.4915455

bn1.bias f4 [400]
0	0xbfa22e75	-1.2670428
1	0xbf05d16d	-0.52272683
2	0xbfbf8185	-1.4961401
3	0xbf6d1d32	-0.92622674
4	0xbf6f1886	-0.93396795
5	0xbdc3592e	-0.09538494
6	0xbe3b08bd	-0.18265052
7	0xbf84c33e	-1.0372083
8	0xbf358f3c	-0.70921683
9	0xbf9196ce	-1.1374147
10	0xbf8e5135	-1.1118532
11	0xbf78ffe9	-0.9726549
12	0xbee5e85e	-0.44903845
13	0xbf912ad9	-1.1341201
14	0xbf4f88ae	-0.8106793
15	0xbc4b929d	-0.012425092
16	0xbf4492d0	-0.7678652
17	0xbf9eb2e4	-1.2398343
18	0xbcb1f879	-0.021724926
19	0xbecdad1b	-0.40171131
20	0xbed1139a	-0.40835267
21	0xbfb06967	-1.3782166
22	0xbf718bdb	-0.9435403
23	0xbf7d53db	-0.9895608
24	0xbf08913c	-0.5334661
25	0xbf398dd5	-0.72482044
26	0xbf849740	-1.0358658
27	0xbf2d29c5	-0.6764186
28	0xbf45d65c	-0.7728021
29	0xbea1be77	-0.31590626
30	0xbf6e0b63	-0.92986125
31	0xbf333cad	-0.7001446
32	0xbfb51f71	-1.415022
33	0xbe932c7b	-0.28744873
34	0xbf87db00	-1.0613708
35	0xbe5ef191	-0.21771838
36	0xbd5c8d82	-0.05384589
37	0xbf38b8eb	-0.7215716
38	0xbf6ab381	-0.9168015
39	0xbe71e4ec	-0.23622483
40	0xbf74da7b	-0.95645875
41	0xbf69eb9d	-0.9137514
42	0xbf5ff28c	-0.8747947
43	0xbf621882	-0.88318646
44	0xbfd9e35e	-1.7022512
45	0xbef075ce	-0.46964878
46	0xbeba6d57	-0.36411545
47	0xbf82b604	-1.0211797
48	0xbf86f7b9	-1.0544349
49	0xbf8d420f	-1.1035784
50	0xbfb45147	-1.4087304
51	0xbf95d2af	-1.170492
52	0xbf2b4ad3	-0.6691105
53	0xbf8665e0	-1.049984
54	0xbea49671	-0.32146028
55	0xbf2f4d76	-0.6847757
56	0xbf665d97	-0.89986557
57	0xbe97579b	-0.29559025
58	0xbf54d542	-0.83137906
59	0xbfa215f2	-1.2662947
60	0xbf3dd729	-0.74156433
61	0xbf6388e8	-0.8888078
62	0xbf772d2b	-0.96553296
63	0xbf3befb0	-0.7341261
64	0xbf7c8bf4	-0.9865105
65	0xbe76f285	-0.24115951
66	0xbf168240	-0.58792496
67	0xbf8134b8	-1.0094213
68	0xbf63768f	-0.8885278
69	0xbc996f47	-0.018729819
70	0xbf8b91e4	-1.0903897
71	0xbf510e72	-0.81662667
72	0xbf81cf24	-1.0141339
73	0xbf69bef7	-0.91307014
74	0xbf7918b0	-0.97303295
75	0xbf0909db	-0.53530663
76	0xbf870ceb	-1.0550817
77	0xbf4b88d6	-0.7950567
78	0xbfc4a8d5	-1.5364023
79	0xbf81f87f	-1.015396
80	0xbe306743	-0.17226891
81	0xbe80c50c	-0.25150335
82	0xbf713df5	-0.94235164
83	0xbf42ef3c	-0.7614629
84	0xbe3beeff	-0.18352889
85	0xbf84848a	-1.0352948
86	0xbf69b0ee	-0.912856
87	0xbf6a5aa5	-0.9154456
88	0xbf750991	-0.9571772
89	0xbf4bd51d	-0.7962206
90	0xbf80d0fa	-1.0063775
91	0xbfadf0e5	-1.358914
92	0xbf8db0aa	-1.1069539
93	0xbf0ea2b1	-0.55717
94	0xbf85ba8b	-1.0447553
95	0xbebdee6b	-0.3709596
96	0xbf961b64	-1.1727109
97	0xbf00d270	-0.503211
98	0xbf2815e7	-0.6565842
99	0xbf80c0e3	-1.0058864
100	0xbf0b7e83	-0.54489917
101	0xbe879152	-0.26478058
102	0xbeb0ccfb	-0.34531388
103	0xbf6df0d6	-0.9294561
104	0xbf0506d9	-0.51963574
105	0xbf396feb	-0.724364
106	0xbec8a4e1	-0.39188293
107	0xbee041a1	-0.4380007
108	0xbf51d7f0	-0.8197012
109	0xbf620ba6	-0.88299024
110	0xbed63577	-0.41837665
111	0xbf50c302	-0.8154756
112	0xbf5be93d	-0.8590277
113	0xbf224995	-0.6339353
114	0xbf0f486b	-0.55969876
115	0xbfb68248	-1.4258509
116	0xbfcb0b75	-1.5862871
117	0xbf33c543	-0.7022287
118	0xbf9a21e9	-1.2041599
119	0xbf49baf4	-0.7880089
120	0xbef8c734	-0.4858948
121	0xbe99ef0e	-0.30065197
122	0xbf4dfb3b	-0.8046147
123	0xbf69a4e7	-0.91267246
124	0xbf297cb9	-0.66205937
125	0xbf58a7f0	-0.8463125
126	0xbf8aefd2	-1.0854437
127	0xbfaf732d	-1.3707024
128	0xbf3b3c45	-0.7313884
129	0xbe380dcb	-0.17974012
130	0xbf9b9c94	-1.2157159
131	0xbd9954a0	-0.07486844
132	0xbf86de8f	-1.053667
133	0xbf472e9a	-0.77805483
134	0xbf9fd409	-1.2486583
135	0xbfc6a285	-1.5518347
136	0xbf886b4a	-1.0657742
137	0xbf362236	-0.7114595
138	0xbf6420ec	-0.89112735
139	0xbfa02e03	-1.2514042
140	0xbf835441	-1.0260087
141	0xbfb33a08	-1.4002085
142	0xbedaee91	-0.42760137
143	0xbfae9aa2	-1.364094
144	0xbe72d146	-0.23712644
145	0xbf209398	-0.6272521
146	0xbfd4f21a	-1.6636384
147	0xbf9b928a	-1.2154095
148	0xbf871be9	-1.0555393
149	0xbfc5bee9	-1.5448886
150	0xbef455b2	-0.4772163
151	0xbf3a21ca	-0.7270781
152	0xbe7af7c6	-0.2450858
153	0xbef57880	-0.47943497
154	0xbf0b2fd2	-0.54369843
155	0xbeef71ae	-0.46766418
156	0xbfa5d106	-1.2954414
157	0xbf552e11	-0.83273417
158	0xbfa5d583	-1.2955784
159	0xbf7e2854	-0.99280286
160	0xbf96f4fc	-1.1793513
161	0x3d63422f	0.05548304
162	0xbf1eb9c0	-0.6200218
163	0xbf4a61cb	-0.7905547
164	0xbfd238da	-1.64236
165	0xbf8d0c24	-1.101933
166	0xbf81a3fd	-1.012817
167	0xbf317aaa	-0.69327796
168	0xbf59f31f	-0.851366
169	0xbf4b0b2e	-0.79313934
170	0xbdca9f73	-0.09893694
171	0xbfb3522d	-1.4009453
172	0xbe21d202	-0.15802768
173	0xbf6e17ae	-0.9300488
174	0xbfae730d	-1.3628861
175	0xbf191da3	-0.5981085
176	0xbf34fff8	-0.7070308
177	0xbe7cb885	-0.24679764
178	0xbf90bd6c	-1.1307807
179	0xbfac255e	-1.3448904
180	0xbf070382	-0.5273973
181	0xbeee3c99	-0.46530607
182	0xbf702160	-0.93800926
183	0xbf7d217e	-0.9887923
184	0xbf91ff3d	-1.1406018
185	0xbf8bf14d	-1.0933014
186	0xbf5d7c4c	-0.86517787
187	0xbf8c03c0	-1.0938644
188	0xbfaef3b9	-1.3668128
189	0xbf8d7420	-1.1051064
190	0xbf59c935	-0.8507264
191	0xbef9d0d8	-0.48792148
192	0xbf2e5f5d	-0.6811426
193	0xbf7ffb2f	-0.9999265
194	0xbf84ae99	-1.0365783
195	0xbefbd00b	-0.49182162
196	0xbf43feec	-0.76560855
197	0xbf7d85d6	-0.9903234
198	0x3de87437	0.11350291
199	0xbf6a99a0	-0.91640663
200	0xbf50f195	-0.81618625
201	0xbf0df651	-0.55453974
202	0xbf2736ee	-0.6531819
203	0xbf24165d	-0.64096624
204	0xbf9105c3	-1.1329883
205	0xbfa24127	-1.2676133
206	0xbf4227f2	-0.758422
207	0x3c83d2ab	0.016091665
208	0xbeb1ac7d	-0.3470191
209	0xbc83ecee	-0.016104188
210	0xbfb01004	-1.3754888
211	0xbf851f45	-1.0400168
212	0xbe195c0f	-0.14976524
213	0xbf038e6e	-0.51389205
214	0xbeee5be9	-0.46554497
215	0xbf03b0e9	-0.5144182
216	0xbd17b332	-0.03703613
217	0xbef9f5c1	-0.48820308
218	0xbf5154c8	-0.8176999
219	0xbabd9316	-0.0014463391
220	0xbf571083	-0.8400957
221	0xbf325099	-0.6965423
222	0xbf6a91ae	-0.9162854
223	0xbfb4d95e	-1.4128835
224	0xbeee7923	-0.46576795
225	0xbf9e8014	-1.2382836
226	0xbfb319f2	-1.3992293
227	0xbeefe600	-0.46855164
228	0x3dd9b702	0.10630609
229	0xbf8bd90d	-1.0925614
230	0xbf9544ca	-1.1661618
231	0xbf3f23ab	-0.746638
232	0xbf9f8428	-1.2462206
233	0x3c9a5067	0.018837167
234	0xbf792134	-0.9731629
235	0xbf8cfee3	-1.1015285
236	0xbef5d5eb	-0.4801477
237	0xbed5873a	-0.41704732
238	0xbf43f912	-0.76551926
239	0xbf478bd3	-0.7794773
240	0xbf8fb72c	-1.1227775
241	0xbfac8c73	-1.3480362
242	0xbe87151a	-0.26383287
243	0xbf72f07a	-0.9489819
244	0xbf3b3525	-0.7312797
245	0xbf367c14	-0.7128308
246	0xbeea0049	-0.45703343
247	0xbee3a5b4	-0.4446236
248	0xbf9260f2	-1.1435835
249	0xbf465c42	-0.77484524
250	0xbf2da2a5	-0.678263
251	0xbf89087d	-1.0705715
252	0xbf8518e0	-1.0398216
253	0xbfbf3e4d	-1.4940888
254	0xbf8f3d4c	-1.1190581
255	0xbd76cfd7	-0.060256805

bn1.running_mean f4 [400]
0	0xc02927e9	-2.643061
1	0xc073333a	-3.8000016
2	0x3e914bba	0.28378087
3	0x40d09fee	6.5195227
4	0x403bc6af	2.9340017
5	0x40329d38	2.7908459
6	0x4029b8db	2.6519077
7	0xc005fe57	-2.0936487
8	0x402b6e46	2.6786056
9	0xc0005130	-2.0049553
10	0xbffbe221	-1.9678384
11	0x3f9ebaec	1.2400794
12	0x40a9ec25	5.310076
13	0x3fbb9a01	1.4656373
14	0x3dcfeeae	0.101529464
15	0xbd5390a6	-0.05165162
16	0x4034b0f6	2.8233008
17	0xc0b98790	-5.797798
18	0x3dba7139	0.09103627
19	0xbf39f6a5	-0.72641975
20	0xbfa02d6b	-1.251386
21	0xc01c7cca	-2.4451165
22	0x41055e4a	8.33552
23	0x40633973	3.5503814
24	0xbf638366	-0.88872373
25	0xbfd476ad	-1.6598717
26	0xbf504881	-0.8136063
27	0x406ee351	3.7326243
28	0xc0859523	-4.174455
29	0xc0a82915	-5.255015
30	0xc01315f5	-2.2982152
31	0x40a2cdb2	5.0876093
32	0xc1004cc8	-8.018745
33	0x3db04c33	0.08608284
34	0x405b6e30	3.4286003
35	0xc0567cc8	-3.351366
36	0xbe5281b1	-0.20557286
37	0xbf927099	-1.1440612
38	0xbfaa6a0f	-1.3313617
39	0xc024c7a2	-2.5746846
40	0xc04ac625	-3.1683438
41	0x3fdc4605	1.7208868
42	0xbf5bde62	-0.85886204
43	0xc02bf186	-2.6866164
44	0xc058e6c4	-3.3890848
45	0x3ec5469a	0.38530427
46	0xc02b12b5	-2.6730168
47	0x4065cc05	3.5905774
48	0xc0109336	-2.258985
49	0xbe0baf78	-0.13641155
50	0xbe52ee86	-0.20598802
51	0xc0583391	-3.3781474
52	0x3fa870e0	1.3159447
53	0xc04de37c	-3.2170095
54	0xbeda99c8	-0.4269545
55	0x4037c980	2.8716736
56	0xc03e89e2	-2.9771657
57	0x40e3c958	7.118328
58	0x3feff1fe	1.8745725
59	0x3f246052	0.64209473
60	0x3f66425b	0.89945
61	0xc015d0b2	-2.3408628
62	0x403bcdad	2.9344285
63	0x4110e31d	9.055448
64	0x3f812732	1.0090086
65	0xbe8e07ff	-0.27740476
66	0xbfc96c80	-1.5736237
67	0xbfe564f5	-1.7921435
68	0xc05f88bd	-3.4927208
69	0x3d511152	0.05104191
70	0xc0b52978	-5.661312
71	0x408bb779	4.3661466
72	0xc0225d05	-2.5369275
73	0x4044d802	3.075684
74	0x40604469	3.5041754
75	0x3f9f914d	1.2466217
76	0xc03d8a58	-2.9615688
77	0x40cef4aa	6.467366
78	0x4071c9de	3.777946
79	0xc0a887ad	-5.266562
80	0x3f3e9bec	0.7445667
81	0x3fd46e8c	1.6596236
82	0xbfd69144	-1.6763082
83	0x3fd7668a	1.6828167
84	0x3e37e42f	0.17958139
85	0xc0913a45	-4.538363
86	0x3ec83ec7	0.39110395
87	0x3f727d47	0.9472241
88	0x3f3ac7c8	0.7296109
89	0xbfbbe572	-1.4679396
90	0x402b25d5	2.674184
91	0xbeb7bbb7	-0.35885403
92	0xc0c50874	-6.157282
93	0x40e327f8	7.098629
94	0xbe736818	-0.23770177
95	0x3f99e52b	1.2023062
96	0xbfebda07	-1.8425912
97	0x40e1b881	7.0537724
98	0x3f06f504	0.52717614
99	0x41004ed2	8.019243
100	0xc09f8b9f	-4.9857936
101	0xc016221d	-2.345832
102	0x3e078d93	0.132376
103	0x40bbc4d1	5.8677754
104	0xc089a003	-4.3007827
105	0xc0693ef1	-3.6444666
106	0x40bb37b4	5.8505497
107	0xbfa44e94	-1.283648
108	0xc0c6992a	-6.206197
109	0x3f4858c1	0.7826043
110	0x3f143809	0.57898
111	0x40d05cfa	6.5113497
112	0x40da3e70	6.820122
113	0xbfafabc1	-1.372429
114	0xc0d9285e	-6.7861776
115	0x3f6fea93	0.93717307
116	0xc0226571	-2.5374415
117	0x4088f051	4.2793355
118	0xc00c2ca9	-2.1902258
119	0x3fbc1943	1.4695209
120	0xc018d72e	-2.3881335
121	0xc0b8ecc6	-5.778903
122	0xbee4658a	-0.44608718
123	0xc052fbcd	-3.2966187
124	0x40f6c53c	7.7115765
125	0x40894ea7	4.290851
126	0xc0af40f6	-5.47668
127	0xc089a17c	-4.3009624
128	0xbf5c3921	-0.8602467
129	0xc03cd666	-2.9505858
130	0x40210e88	2.516512
131	0xbccb6582	-0.024828676
132	0xc0330bf6	-2.797605
133	0x4096dd9d	4.7145524
134	0xc090d4d0	-4.525978
135	0x3cb49733	0.022044754
136	0x3fec2d79	1.8451377
137	0xc07fe7b6	-3.9985175
138	0x40f47156	7.638835
139	0x4087594f	4.229652
140	0xc0f3ba59	-7.6164975
141	0xc03d2b80	-2.95578
142	0x3fdff5d4	1.7496896
143	0x4074e86b	3.8266857
144	0x40146bf0	2.319088
145	0x3e3020ca	0.17200008
146	0xc0019f99	-2.025366
147	0xbf9235d1	-1.1422673
148	0xc03a0f27	-2.9071748
149	0x3f8fb002	1.1225588
150	0x3d119065	0.035538096
151	0xbea9ae28	-0.33140683
152	0xbd483838	-0.04888174
153	0x40df44f5	6.9771676
154	0xc0ca348f	-6.318916
155	0x401a41ec	2.4102736
156	0xbfe4c1eb	-1.7871679
157	0xc057766f	-3.3666036
158	0x3f99b2a9	1.2007648
159	0xc0944311	-4.633187
160	0xbe334ac9	-0.17508997
161	0x400d1df2	2.2049527
162	0xc07e1b71	-3.970425
163	0xbf52d79a	-0.8236023
164	0xc0e3c5d5	-7.1178994
165	0xc0d6ee12	-6.7165613
166	0x40c3cb60	6.118576
167	0xbfd387bb	-1.6525797
168	0x40036f0c	2.0536528
169	0x4058c2cb	3.3868892
170	0x406a5163	3.6612175
171	0x3fc9e230	1.5772152
172	0xc0637793	-3.5541732
173	0x3fdca072	1.7236464
174	0xc05298aa	-3.2905679
175	0xbe9ce68b	-0.3064464
176	0x40d73f51	6.726479
177	0xc0833b54	-4.100992
178	0xc000cdf7	-2.012571
179	0xbf0fea99	-0.5621734
180	0x401c7e4b	2.4452083
181	0x3f98fa56	1.1951396
182	0x3f7deef9	0.9919277
183	0x4005cd8a	2.09067
184	0xc0bd8f2d	-5.9237275
185	0xc08ca1f9	-4.394772
186	0xc03f7052	-2.9912305
187	0x402afa97	2.6715448
188	0x4085bbcd	4.179175
189	0xc024e680	-2.5765686
190	0xc0706eeb	-3.75677
191	0xbe6d02a3	-0.23145537
192	0x40acf90f	5.4054027
193	0x41055c4b	8.335032
194	0xbf8ca4a5	-1.0987746
195	0x4061e885	3.5298169
196	0x3ef501b0	0.4785285
197	0xc0df21fb	-6.972898
198	0x40a58829	5.172871
199	0x4081b762	4.0536356
200	0x3f9574e9	1.1676303
201	0xbda764df	-0.081735365
202	0xbf7a7ba8	-0.97844934
203	0xc04c81f3	-3.1954315
204	0xbfe5ec61	-1.7962762
205	0xc10a44ae	-8.6417675
206	0x3faeada5	1.3646742
207	0x4010a988	2.2603474
208	0xc0a594d9	-5.17442
209	0x3f96a14a	1.1767972
210	0x3facb998	1.3494139
211	0x40acb6d6	5.397319
212	0x405c587e	3.4429011
213	0xc062ff14	-3.5468187
214	0xc0f7620b	-7.730718
215	0x3f6983a4	0.9121649
216	0xbed02c35	-0.40658727
217	0xc08ff9c1	-4.4992375
218	0x409508f6	4.657344
219	0x40babe51	5.835732
220	0xbf5e3faa	-0.86815894
221	0xbfbe67cd	-1.4875427
222	0x3f968b35	1.1761233
223	0xc0fdcaf0	-7.9310226
224	0xc04df04f	-3.2177923
225	0xc078fc16	-3.890386
226	0xbfef035f	-1.8672904
227	0x3f98734e	1.1910188
228	0x4052cc4b	3.293719
229	0x40420bec	3.0319777
230	0x3fc2a22c	1.5205741
231	0xc0bd5394	-5.9164524
232	0xc0812230	-4.0354233
233	0xc04a2a0d	-3.1588166
234	0x40800517	4.0006213
235	0xc0c4baf0	-6.1478195
236	0xc015767f	-2.3353574
237	0x40cfa074	6.4883366
238	0xc06892f5	-3.6339695
239	0xc0c827fe	-6.254882
240	0x409fe62f	4.9968486
241	0x3f153518	0.5828414
242	0x3db92bab	0.09041532
243	0x3e333701	0.17501451
244	0xbf7c9666	-0.9866699
245	0x40b7851d	5.734999
246	0x3f983bd9	1.1893264
247	0x4031f639	2.7806532
248	0xbea5ff05	-0.32421127
249	0xbdc91e5f	-0.09820246
250	0x4006399e	2.0972667
251	0x3fca10a2	1.5786326
252	0xc08b211c	-4.3477917
253	0xbfffc199	-1.9980956
254	0xbfb1f9a1	-1.3904306
255	0x3e03fbc0	0.12889004

bn1.running_var f4 [400]
0	0x42d29311	105.28724
1	0x42040fe7	33.01553
2	0x42db1d64	109.5574
3	0x41cd4032	25.656345
4	0x4207edd6	33.98226
5	0x415f1991	13.943742
6	0x411645be	9.392027
7	0x42e9ff5a	116.99873
8	0x42508f17	52.139736
9	0x43567b67	214.48204
10	0x423f6f24	47.858536
11	0x42aa06d9	85.013374
12	0x42d27f6b	105.24886
13	0x42411339	48.268772
14	0x42a0a68f	80.32531
15	0x3e67f642	0.22652534
16	0x4224997b	41.149883
17	0x43390353	185.01299
18	0x3f33cc91	0.7023402
19	0x42e40e04	114.027374
20	0x430ab486	138.70517
21	0x43557cd3	213.4876
22	0x431b23e5	155.14021
23	0x435e3ca1	222.23683
24	0x42f164ff	120.69726
25	0x41af4ab0	21.911469
26	0x433d8e0a	189.55484
27	0x42c3ac67	97.83672
28	0x41d96d1d	27.178278
29	0x4239841c	46.379013
30	0x43277bd1	167.48366
31	0x419a2d5b	19.272146
32	0x42535528	52.83316
33	0x41219e35	10.101125
34	0x42880129	68.002266
35	0x430c56c4	140.33893
36	0x3eda1257	0.42592117
37	0x42519a0c	52.400436
38	0x42c2a37c	97.319305
39	0x41dfca57	27.973799
40	0x42bff0c5	95.97025
41	0x439b56ef	310.67917
42	0x4180905c	16.070488
43	0x42cc26e1	102.075935
44	0x42a37edc	81.74777
45	0x426fc704	59.94435
46	0x428e7b42	71.24074
47	0x431ac336	154.76254
48	0x426a0350	58.503235
49	0x43006ca0	128.42432
50	0x43083e30	136.24292
51	0x42bc6a48	94.20758
52	0x429783fe	75.7578
53	0x424fc61c	51.943466
54	0x4238e790	46.226135
55	0x42f1c7b7	120.89007
56	0x41ab65ff	21.424803
57	0x438b7598	278.9187
58	0x43243823	164.21928
59	0x426fa67f	59.912594
60	0x420e0a11	35.50983
61	0x424b0960	50.759155
62	0x429f3fc7	79.624565
63	0x4298de53	76.43423
64	0x42491650	50.27179
65	0x42a84de8	84.15216
66	0x4287b4fc	67.853485
67	0x42045313	33.081127
68	0x42ced1c7	103.40972
69	0x3e409a86	0.18808946
70	0x4254d861	53.211308
71	0x42f79bf0	123.804565
72	0x423326df	44.78796
73	0x4208a753	34.163403
74	0x420afccd	34.746876
75	0x432fc999	175.78749
76	0x41e892c3	29.071661
77	0x420cc4ef	35.192318
78	0x436a058f	234.02171
79	0x42d0cb49	104.39704
80	0x4260b560	56.177124
81	0x4168d0e4	14.550999
82	0x414481b2	12.281664
83	0x437d82b9	253.51064
84	0x41cf01ed	25.87594
85	0x42c0c798	96.38983
86	0x42b1cc28	88.89874
87	0x43389123	184.56694
88	0x432247b4	162.28009
89	0x429d8b75	78.77238
90	0x42c66994	99.20621
91	0x43026660	130.3999
92	0x43571e23	215.11772
93	0x430dfdf8	141.99207
94	0x42038faf	32.890316
95	0x42992bbf	76.58544
96	0x425b22dc	54.784042
97	0x42c48c8b	98.2745
98	0x42b55d84	90.68265
99	0x428b6d8f	69.71398
100	0x41f677b2	30.808445
101	0x423db186	47.423363
102	0x42fa314a	125.09627
103	0x4314bf3e	148.74704
104	0x4299333b	76.60006
105	0x433be424	187.89117
106	0x433367e9	179.4059
107	0x42c48876	98.266525
108	0x41fd06fc	31.62841
109	0x42574be7	53.824123
110	0x40ea2249	7.316685
111	0x42c13b25	96.61552
112	0x42fc800e	126.25011
113	0x43068385	134.51375
114	0x428b227b	69.567345
115	0x42037581	32.86475
116	0x42b4075e	90.01439
117	0x42c3691f	97.705315
118	0x420aca7c	34.69774
119	0x42f08c6b	120.274254
120	0x42b6a9a1	91.33131
121	0x4305a49a	133.64297
122	0x42cb648f	101.6964
123	0x4391132b	290.14975
124	0x4396dcc4	301.72473
125	0x430636ad	134.21358
126	0x4365b4b7	229.70592
127	0x434957b9	201.34267
128	0x42157778	37.36667
129	0x42cfe31f	103.943596
130	0x43372374	183.13849
131	0x40027023	2.0380943
132	0x42535b7b	52.839336
133	0x4278598b	62.087444
134	0x42f18593	120.76089
135	0x42a0ad24	80.338165
136	0x42da803a	109.25044
137	0x42e98935	116.76798
138	0x4320ee5e	160.93112
139	0x42d5ffa0	106.99927
140	0x4288d34b	68.41268
141	0x421b572d	38.835133
142	0x4204b5ab	33.17741
143	0x428b7086	69.71977
144	0x41e1a7a9	28.206865
145	0x42dfc818	111.89081
146	0x42aa5659	85.16865
147	0x425371af	52.86102
148	0x4320208c	160.12714
149	0x423113d8	44.26938
150	0x420bf54b	34.989544
151	0x433c6a8c	188.4162
152	0x429b864a	77.76228
153	0x43913b89	290.46512
154	0x4308e555	136.89583
155	0x42236f8b	40.85893
156	0x434acd36	202.8016
157	0x429bf8c3	77.98586
158	0x432ca100	172.6289
159	0x435757ba	215.34268
160	0x429e7a45	79.23881
161	0x42be6a48	95.20758
162	0x42879a6d	67.80161
163	0x43270e5f	167.05614
164	0x4228f76c	42.241623
165	0x428b892f	69.76794
166	0x438f0672	286.05035
167	0x431eb697	158.71324
168	0x423b7b26	46.870262
169	0x42e66ecb	115.21639
170	0x431382f2	147.5115
171	0x430f4b24	143.29352
172	0x425394fe	52.8955
173	0x43643209	228.19545
174	0x4285c522	66.885025
175	0x42973020	75.593994
176	0x42c6a2af	99.31774
177	0x421df17f	39.485836
178	0x41630340	14.188293
179	0x42e2a1ca	113.315994
180	0x42c31647	97.54351
181	0x429e6e17	79.21502
182	0x41f96fb0	31.179535
183	0x4361adb2	225.6785
184	0x428e4f90	71.155396
185	0x42adacf4	86.8378
186	0x43bd745b	378.90903
187	0x42b75000	91.65625
188	0x4337fcc5	183.98738
189	0x42bff264	95.97342
190	0x428c5059	70.15693
191	0x411806e3	9.501681
192	0x42cba9f3	101.83193
193	0x42bc5937	94.17425
194	0x42a3995a	81.799515
195	0x42acdf43	86.43606
196	0x42f336d6	121.6071
197	0x4280a148	64.315
198	0x43546e1f	212.43016
199	0x4264af69	57.1713
200	0x429610fb	75.033165
201	0x41de9a73	27.825415
202	0x41768f12	15.409929
203	0x43dfc197	447.51242
204	0x429be905	77.95512
205	0x4289905a	68.78194
206	0x4313fd63	147.98979
207	0x43410a60	193.04053
208	0x42ee20c1	119.06397
209	0x41b7cd73	22.975317
210	0x42c5f36d	98.97544
211	0x42ba2c79	93.08686
212	0x42a500b3	82.501366
213	0x42c80b53	100.02212
214	0x43304d90	176.30298
215	0x42472bdc	49.79283
216	0x4322502a	162.31314
217	0x43214cfd	161.30074
218	0x42967b03	75.24026
219	0x41984023	19.031317
220	0x41a09f3d	20.077753
221	0x431a0e52	154.05594
222	0x4208838b	34.12846
223	0x43267402	166.45316
224	0x4282b13b	65.34615
225	0x432c7e1a	172.49258
226	0x425df6cc	55.491013
227	0x429b3e69	77.621895
228	0x4216fc8f	37.74664
229	0x430d3239	141.19618
230	0x41eafbb1	29.372896
231	0x42a51aa0	82.552
232	0x42b4d167	90.40899
233	0x42cf4f2f	103.654655
234	0x41d7ccbd	26.97497
235	0x42e97ed6	116.74773
236	0x4226513a	41.579323
237	0x438d0cab	282.09897
238	0x4246a2f1	49.659122
239	0x4304647c	132.39252
240	0x42c51bbb	98.55416
241	0x42c69259	99.285835
242	0x428fc66f	71.887566
243	0x431bb403	155.70317
244	0x42557374	53.362747
245	0x4252783f	52.617428
246	0x43056680	133.40039
247	0x436dc826	237.78183
248	0x4254fa00	53.24414
249	0x4342e75d	194.90376
250	0x42a427cf	82.07775
251	0x434ed22b	206.82097
252	0x42a6c8ce	83.3922
253	0x42c291da	97.28487
254	0x42eb6f5a	117.71748
255	0x42d8a1c3	108.31594

fc2.weight f4 [300, 400]
0	0xbf2c2987	-0.67250866
1	0x3d301cc7	0.042996194
2	0xbe9ff420	-0.3124094
3	0x3d9db2fb	0.077001534
4	0xbe9c464a	-0.30522376
5	0x3e4347ed	0.19070406
6	0x3ec0f586	0.3768732
7	0xbf821a94	-1.0164361
8	0xbe3ee251	-0.1864102
9	0xbeb54a5b	-0.3540829
10	0xbf249074	-0.6428292
11	0xbe8cc01a	-0.27490312
12	0xbf5ddc5c	-0.86664367
13	0xbdf91e97	-0.12164038
14	0xbf54065b	-0.828222
15	0xbd252170	-0.04031509
16	0xbed7931d	-0.42104426
17	0x3ecb8e94	0.39757216
18	0x3cea2c62	0.028585616
19	0xbdfe7b43	-0.12425854
20	0xbec54ba2	-0.38534266
21	0x3f07745a	0.52911913
22	0x3dfee60c	0.12446222
23	0xbcbf58f1	-0.02335784
24	0x3f2da193	0.6782467
25	0xbead6074	-0.3386265
26	0xbde9c5f0	-0.11414707
27	0xbf2f6c33	-0.68524474
28	0x3e5b6126	0.21423778
29	0xbedfae7c	-0.4368781
30	0x3eda694a	0.42658454
31	0xbe9c9167	-0.30579683
32	0xbf287f61	-0.65819365
33	0xbf6aeb36	-0.91765153
34	0xbecb011c	-0.39649284
35	0xbd329397	-0.043597784
36	0xbcea5854	-0.028606571
37	0xbbfdaae0	-0.007741317
38	0xbe4b7557	-0.1986898
39	0xbe6dd5c3	-0.23226075
40	0x3f099fc9	0.5375944
41	0x3db25595	0.0870773
42	0xbbe893ec	-0.007097712
43	0xbec5e443	-0.38650712
44	0xbe8eb57f	-0.27872846
45	0x3f02ad1c	0.51045394
46	0xbe1cad41	-0.15300466
47	0x3f0b865f	0.5450191
48	0xbf001916	-0.5003828
49	0xbef7ee88	-0.48424172
50	0xbecca70d	-0.399712
51	0xbf782bab	-0.9694163
52	0xbf37f4f1	-0.71858126
53	0x3f0c6d99	0.5485473
54	0xbe0ac020	-0.13549852
55	0xbe22fbf1	-0.1591642
56	0xbe9e5383	-0.3092309
57	0xbe3ca728	-0.1842314
58	0xbe726704	-0.2367211
59	0xbfa0c982	-1.2561495
60	0x3e5f36ed	0.21798296
61	0x3f440046	0.7656292
62	0xbd130ca1	-0.035900716
63	0xbec208b7	-0.37897274
64	0xbf192de7	-0.59835666
65	0xbd876541	-0.066111095
66	0xbeef56b9	-0.46745852
67	0xbe529043	-0.20562844
68	0xbe63e967	-0.22257005
69	0x3c8524e6	0.016252946
70	0xbf417f8d	-0.7558525
71	0xbf01d848	-0.50720644
72	0x3f6bb981	0.9207993
73	0x3de24a88	0.11049372
74	0x3e811c43	0.25216874
75	0xbf800f8e	-1.0004747
76	0x3e0e3851	0.1388867
77	0xbe122a23	-0.14273886
78	0xbf0b95c3	-0.54525393
79	0xbe9d4a8b	-0.30720934
80	0xbe62fe94	-0.22167426
81	0xbd8f2d13	-0.06991019
82	0x3dd29dee	0.10284029
83	0xbf0d8ec5	-0.55295974
84	0x3f04195c	0.51601195
85	0x3d9529ad	0.0728334
86	0xbed5ec95	-0.4178206
87	0x3e06b100	0.13153458
88	0xbf597701	-0.8494721
89	0xbb000116	-0.0019531897
90	0x3c491810	0.012273803
91	0x3eb0400c	0.34423864
92	0xbf1b18c7	-0.6058468
93	0xbf2435ee	-0.6414479
94	0xbe634928	-0.22195876
95	0x3e8bb0e6	0.272834
96	0x3f184473	0.59479445
97	0xbf8f1932	-1.1179564
98	0xbfcc2144	-1.5947652
99	0xbfabbbde	-1.3416708
100	0xbf214e87	-0.6301045
101	0xbf1e9e34	-0.6196015
102	0xbee02b32	-0.43782955
103	0x3e948fc9	0.2901595
104	0xbeaeab85	-0.34115234
105	0x3f1a3e49	0.6025129
106	0xbf4a4332	-0.7900878
107	0xbfaf967c	-1.3717799
108	0x3e98d594	0.29850447
109	0xbe004850	-0.12527585
110	0xbf828dc2	-1.0199511
111	0xbf03a7f2	-0.5142814
112	0x3da1129a	0.07864876
113	0x3ea9daa5	0.33174625
114	0x3f0897af	0.5335645
115	0xbe242880	-0.16031075
116	0xbe1135a1	-0.14180614
117	0xbf90cddd	-1.1312824
118	0xbf8827b0	-1.0637112
119	0xbf1a93b3	-0.6038162
120	0x3e0b2acc	0.13590544
121	0xbf4dfcff	-0.80464166
122	0xbf1becce	-0.6090821
123	0xbf1c5ca6	-0.6107887
124	0xbd51e450	-0.051243126
125	0xbf24c30b	-0.6436011
126	0x3f3152f9	0.6926723
127	0x3e938ded	0.28819218
128	0x3f118de7	0.5685715
129	0xbf0ea302	-0.5571748
130	0xbf221e15	-0.6332715
131	0xbc740b60	-0.01489529
132	0xbe7271f2	-0.23676279
133	0xbe257c74	-0.16160756
134	0xbf4986ce	-0.7872132
135	0xbe68101f	-0.226624
136	0x3de8ff67	0.11376839
137	0xbf49247e	-0.7857131
138	0xbf2d7277	-0.67752784
139	0xbdc2362d	-0.094829895
140	0x3e0e7291	0.13910891
141	0x3f8cffee	1.1015604
142	0xbd941d3c	-0.072321385
143	0xbeb6dc05	-0.35714737
144	0xbee41ae7	-0.44551775
145	0xbd90f1c6	-0.070773646
146	0xbf2808f8	-0.65638685
147	0xbe54d75b	-0.20785277
148	0xbebe0911	-0.37116292
149	0xbe089f4c	-0.13342017
150	0xbf1ab83d	-0.60437375
151	0x3d2e1ce3	0.042508017
152	0x3cc62914	0.02418951
153	0xbfa7601f	-1.3076209
154	0xbe8d4a77	-0.27595875
155	0x3eed5c21	0.4635935
156	0xbf07b2ef	-0.53007406
157	0xbf304496	-0.68854654
158	0xbe7662aa	-0.24061075
159	0x3e6854e1	0.22688629
160	0x3f1a5c5a	0.6029717
161	0x3f2f9212	0.6858226
162	0x3f149bed	0.58050424
163	0xbe90a0a9	-0.28247574
164	0x3e8784d1	0.26468518
165	0x3e1ba2fd	0.15198894
166	0xbf6d4dd0	-0.9269686
167	0xbeae67cf	-0.34063575
168	0xbf586158	-0.84523535
169	0x3e504a84	0.20340925
170	0xbf3ea2aa	-0.74466956
171	0xbf312352	-0.6919452
172	0x3e80752c	0.25089395
173	0xbe56827b	-0.20948212
174	0xbe7aab6d	-0.24479456
175	0x3ea9c5e8	0.33158803
176	0xbe3c02a2	-0.1836038
177	0xbe34bf59	-0.17651118
178	0xbf52ec85	-0.8239215
179	0x3f678a84	0.90445733
180	0xbf81874f	-1.0119418
181	0xbe5d55f8	-0.21614826
182	0xbe5f63ac	-0.21815366
183	0xbebee093	-0.37280712
184	0x3d7a334c	0.061084077
185	0xbe2f6947	-0.17130004
186	0xbeba1fa7	-0.36352274
187	0x3f194133	0.5986511
188	0x3d35546d	0.044269968
189	0x3e96848c	0.29398
190	0xbf3f6b75	-0.7477334
191	0x3f208e4f	0.62717146
192	0xbeae620d	-0.34059182
193	0x3cade447	0.021227015
194	0x3f13e1ea	0.5776659
195	0xbefba238	-0.491472
196	0x3ec7034a	0.38869697
197	0x3e30ed8d	0.17278118
198	0xbf1a8324	-0.60356355
199	0x3e9ee278	0.31032157
200	0xbe28ab5c	-0.16471618
201	0xbdbd5f56	-0.092466995
202	0xbf6ff5ca	-0.9373442
203	0xbf78c1a3	-0.97170466
204	0xbba5ce4f	-0.0050599943
205	0xbd591783	-0.05300094
206	0xbedddf1d	-0.43334284
207	0xbfa29479	-1.270156
208	0xbda47f15	-0.080320515
209	0x3e9a6116	0.30152196
210	0x3e763b83	0.2404614
211	0xbe3567ea	-0.17715421
212	0xbe14b9f8	-0.14524066
213	0xbe7377ba	-0.23776141
214	0xbf5bb41b	-0.85821694
215	0x3e26e766	0.16299209
216	0xbd9dc6d6	-0.077039406
217	0xbf31400f	-0.6923837
218	0xbe54302c	-0.20721501
219	0xbf0f3cf2	-0.5595237
220	0xbe133739	-0.14376535
221	0xbfb2f13e	-1.3979871
222	0xbec421a4	-0.38306916
223	0xbf238655	-0.6387685
224	0xbdcd48bf	-0.10023641
225	0xbf5c70c9	-0.86109596
226	0xbdbcb39c	-0.09213945
227	0x3f33ce34	0.70236516
228	0xbf701e7d	-0.9379652
229	0xbedc4127	-0.43018457
230	0x3e537ea3	0.20653777
231	0xbf91958c	-1.1373763
232	0xbca1454f	-0.01968637
233	0x3e3882ce	0.18018648
234	0x3e404430	0.18776011
235	0x3f36c3de	0.7139262
236	0xbe12ca4b	-0.14334981
237	0xbd83a5a3	-0.06428077
238	0xbdfe84d7	-0.12427681
239	0x3dc5eaa1	0.096638925
240	0x3e40a15a	0.1881155
241	0xbf3b4a3f	-0.73160166
242	0xbe4f5fc3	-0.20251374
243	0xbd9cc2ce	-0.076543435
244	0xbe929947	-0.28632566
245	0xbe2631a9	-0.16229881
246	0xbf8d0f5f	-1.1020316
247	0xbe5d3aa4	-0.21604401
248	0x3d3c3ec4	0.045958295
249	0x3eafb76f	0.34319636
250	0x3d8a0d29	0.06740791
251	0xbf1941f4	-0.5986626
252	0x3d9b489f	0.07582211
253	0xbe112ef1	-0.14178063
254	0xbf1cec9a	-0.61298525
255	0xbe371c06	-0.17881784
