colab/weights/critic_checkpoint.pth (torch_old, 549477 bytes, 9 tensors)

fcs1.weight f4 [400, 33]
000000 16 df 4a bf a8 9f 00 c0 cf 11 69 3f c8 40 65 3f
       -0.7924665 -2.0097446 0.910428 0.89551973
000010 8b 84 2b 3f 2e f1 0e be b6 56 d2 3c e5 eb 96 bf
       0.6699912 -0.1395919 0.025676113 -1.1790739
000020 2a 88 2c bf 9c 79 64 3f 87 17 27 3c eb 45 c1 bd
       -0.6739527 0.8924806 0.01019848 -0.09437164
000030 20 b7 b7 3d dc 69 b6 3f c0 bb 17 40 96 da 08 bf
       0.08970475 1.4251056 2.3708344 -0.53458536
000040 4c f7 89 3f 86 d7 7b 3f ee fe f4 bf f2 7d 84 3f
       1.0778594 0.9837574 -1.9140298 1.0350935
000050 11 8f 1f 3e c0 02 e7 3e 91 7e 9c 3e e5 fc 35 be
       0.15581919 0.45119286 0.30565313 -0.17772253
000060 3b a5 f7 3e 3a 58 03 3f 42 16 10 c0 8b 96 2d 3d
       0.48368248 0.513065 -2.2513585 0.042379897
000070 15 7a 59 3f 2a 12 20 bd 97 72 97 3b 9d d0 ea bc
       0.8495191 -0.039079823 0.0046218145 -0.028663928
000080 56 5b 46 c0 f2 9a 97 3f 63 68 09 3f 51 92 54 be
       -3.0993247 1.184416 0.53674906 -0.2075894
000090 cb c2 16 3f 2f c8 9c bd e2 0b cd be 0f 3b da 3d
       0.5889098 -0.076553695 -0.40048128 0.10655796
0000a0 15 90 72 3e 78 bf 5b 40 60 bf 6e 3f ec 99 34 bf
       0.23687775 3.4335613 0.93260765 -0.70547366
0000b0 f8 39 eb bd 77 34 88 3f b4 95 19 3e 21 a5 48 bf
       -0.11485666 1.0641011 0.14998513 -0.78376967
0000c0 2b d3 e1 3d be c2 06 3e 8f 8e 0d bf 1f 89 62 3e
       0.11026605 0.13160226 -0.5529565 0.2212262
0000d0 c5 85 31 bf dc 56 84 bd 0f 3b cc be fc 65 4b be
       -0.6934474 -0.064618796 -0.39888808 -0.19863123
0000e0 d0 cf 71 bf f2 de a4 bd 5a 0a 75 3f 26 cc 05 3f
       -0.9445772 -0.08050336 0.9571892 0.5226463
0000f0 6f 2f 6e 3c 21 93 8e 3f 60 e1 50 bb 33 08 3e bc
       0.014537676 1.113865 -0.0031872615 -0.0115986345
000100 fa ba cb bc 52 9f 12 41 a6 53 90 3f 47 42 eb 3f
       -0.02486943 9.163897 1.1275527 1.8379601
000110 ce e3 45 c0 a3 c3 50 3f 69 72 d1 bf fe 2b 1e bf
       -3.092029 0.8154852 -1.636304 -0.61785877
000120 dd 8b 5c bf aa a3 cc be d4 dc d6 3f 01 03 11 c0
       -0.86150914 -0.39968616 1.6786141 -2.2658083
000130 3f 78 49 3f 27 61 c2 3e 01 e7 72 bf 0a 02 3a 3f
       0.78699106 0.37964746 -0.94883734 0.7265936
000140 70 80 2f c0 db 7b 51 3f e6 db fd be 1d 6b 5b 3f
       -2.7422142 0.81829613 -0.49581832 0.85710317
000150 6f a6 cb 3e e6 35 49 3e df 53 3c 3d 3d c3 30 bf
       0.39775416 0.19649467 0.045978423 -0.6904791
000160 99 53 2c 3d 49 41 62 3f ba c7 62 bf c8 48 83 3e
       0.042071912 0.8838087 -0.8858601 0.25641465
000170 af 6d 58 be a7 d3 33 bd 4b 23 27 bf 28 aa d4 bb
       -0.21135591 -0.04390302 -0.6528823 -0.006490011
000180 0b 4a b4 bc 63 d2 19 bd be 91 ea 3f c0 86 d5 3e
       -0.022007963 -0.037554156 1.8325727 0.4170437
000190 ae 14 e2 bf 8c d1 1a 40 a6 4e a8 3e df fd 9b bf
       -1.7662561 2.4190397 0.32872504 -1.218685
0001a0 8e 37 c2 3f b9 0a 00 bf 43 ca ce bf b5 6d fe bf
       1.5173204 -0.5001636 -1.6155475 -1.987723
0001b0 6f b5 0a 40 c4 22 8b 3e a0 32 43 bf 0d dd 9b bf
       2.1673238 0.27174962 -0.7624912 -1.2176834
0001c0 89 5a 44 bf af 4d 01 40 39 f8 90 bf fc 2a a9 3e
       -0.76700646 2.0203664 -1.1325752 0.33040607
0001d0 e2 8c 5a 3e b9 a9 17 3f ff 9a 35 bf 33 ec bc be
       0.21342805 0.5924335 -0.7093963 -0.36898956
0001e0 57 81 bb be 30 6f bb be 39 57 0c bf 90 78 bb be
       -0.36622116 -0.36608267 -0.5482059 -0.3661542
0001f0 41 88 21 bf 17 c2 3c bf 0b 2a 4b 3d 3a fc 58 3f
       -0.6309853 -0.7373366 0.049600642 0.8475987
000200 68 bf ac bb 9b a9 59 bc d5 ac 38 3d e4 18 d4 3e
       -0.005271841 -0.013285066 0.0450867 0.4142524
000210 36 d5 06 40 c6 5f ad 3f d1 6a 9d 3f cc 9e d8 bd
       2.1067634 1.3544853 1.2298223 -0.10577163
000220 b7 6b d6 be 61 6e ad bf ed 19 51 be eb a0 98 3d
       -0.41879055 -1.354931 -0.20420046 0.07452568
000230 7e 62 bb 3f b1 36 6a 3f b9 3c 18 40 30 1d ea 3e
       1.4639432 0.914897 2.3787062 0.45725393
000240 9c 98 30 3e 21 69 30 bf 10 6c 9a 3d c6 d7 90 bf
       0.17245716 -0.68910414 0.075401425 -1.1315849
000250 88 e5 e3 3f 04 d6 e3 bd 9d 02 0b bf eb 62 99 3f
       1.7804422 -0.111248046 -0.5430086 1.1983312
000260 a3 9b 8d be 6d a4 c7 be f8 38 af 3c 6b 51 16 bf
       -0.27657804 -0.38992634 0.02138947 -0.58717984
000270 b6 a3 de 3f f2 5a d6 bf 40 85 24 be 22 ff fe bc
       1.7393711 -1.6746504 -0.16066456 -0.031127516
000280 0e 97 87 be 38 ac 5c bc ef 27 44 3d a0 c5 c4 3a
       -0.26482433 -0.0134687945 0.047889646 0.001501251
000290 68 51 cf be 54 11 e5 bf 1f 43 96 3f 72 08 e0 bf
       -0.40491796 -1.7895913 1.1739234 -1.7502577
0002a0 eb e0 80 3e dd 32 68 3e 82 dc 15 bf c8 27 c8 bc
       0.251716 0.22675653 -0.58539593 -0.024433032
0002b0 f2 06 b3 bd 86 55 43 c0 70 1a 28 3e 88 90 86 3e
       -0.08741559 -3.052095 0.16416335 0.26282144
0002c0 49 3e 0e bf 5f 55 a9 bb cf c5 cd 3e a3 ce 41 c0
       -0.5556379 -0.0051676477 0.40189978 -3.028237
0002d0 10 b7 49 3f 66 10 4d 3e 8d 22 97 bf 8b 6d ed 3d
       0.78794956 0.20025787 -1.1807419 0.11593159
0002e0 eb 3f 03 3e 27 bf 4e be 68 d2 99 3d 6c 36 46 3e
       0.12817352 -0.20190106 0.07510835 0.19356698
0002f0 4c ed 6f 3e 1c 6c 0e bf e9 67 f1 be 87 b2 15 3f
       0.23430365 -0.5563371 -0.4714959 0.58475536
000300 53 22 0f 3c 45 c5 81 bf e7 e4 17 3d 56 f4 4a bd
       0.008736211 -1.0138327 0.037083533 -0.049549423
000310 60 4d 36 bb 97 58 7a 40 8d 96 80 3f a9 59 27 c0
       -0.0027817115 3.911657 1.0045944 -2.6148474
000320 15 16 d4 3f 61 cd 6a 3e af b3 ee be 89 59 97 3e
       1.6569239 0.22929908 -0.46621463 0.29560497
000330 28 43 21 3f c9 03 c4 bc 0f 8b 85 40 2c ad dd bf
       0.629931 -0.023927586 4.173225 -1.7318473
000340 3b 36 a1 3f 8d 22 7d be d7 dd 5f bd c7 fe 96 3e
       1.2594675 -0.24720211 -0.054654922 0.29491255
000350 62 00 d4 3f d7 2d 94 bf ec d7 21 3f 5c 49 70 3f
       1.6562617 -1.1576489 0.63220096 0.9386194
000360 93 61 b0 3e 37 b8 35 3c 49 ee 1e 3f f4 eb 0a c0
       0.34449443 0.0110912835 0.62082344 -2.1706514
000370 1e 80 c1 be 4e c0 4f bf b0 e7 d4 3e 61 30 81 be
       -0.37793058 -0.8115281 0.41583014 -0.25232223
000380 91 81 2e bf 1f d2 30 bc 0b dd 08 bf 5a 34 fe bc
       -0.6816645 -0.010792284 -0.53462285 -0.031030823
000390 76 43 a1 3c 23 08 9c bc 50 df ba 3f 2e 71 27 bd
       0.019685488 -0.019046849 1.45994 -0.04087942
0003a0 3d ff db bd ee 60 a9 bb 8a bf bb 3c dd 73 86 bc
       -0.10742042 -0.0051690256 0.022918481 -0.01641267
0003b0 3a 2b e6 3b 4c 8e 3d 3c 38 fe 8d 3d ba ee c2 bc
       0.007024196 0.011569571 0.06933254 -0.023795474
0003c0 29 83 cd bc 2b 6c 46 bb 0c 2c 24 bb 3c 51 a9 3b
       -0.025086956 -0.0030276875 -0.0025050668 0.0051671546
0003d0 12 0d 8c bd 8f 58 42 bd 88 45 ee bc 49 db 74 3a
       -0.068384305 -0.047447737 -0.02908589 0.00093405374
0003e0 29 fa 85 bc 29 af b9 bc e4 fe e8 bd 3c 78 7f 3d
       -0.016354637 -0.02266653 -0.113767415 0.062370524
0003f0 e2 1a b9 bd 35 af 84 bd d4 ff 24 bd 5f f9 8e 3c
       -0.090383306 -0.064787306 -0.04028304 0.017452894

fcs1.bias f4 [400]
000000 93 6d c9 3c 1e 2b 2b 3e 96 ac 7c 3d 16 80 c9 3d
       0.024588382 0.16715667 0.06168803 0.098388836
000010 53 82 90 3d e4 d9 60 bd da d4 2a 3d 76 55 f6 bd
       0.07056107 -0.054895297 0.041706897 -0.12028019
000020 ae 01 24 3e 2a 22 24 3c eb 59 0a 3e 87 74 fa bd
       0.16016266 0.010017911 0.13510863 -0.12229257
000030 cd 02 24 be 79 3a aa 3c 58 54 b2 bc e7 a5 90 bd
       -0.16016693 0.020779835 -0.021768734 -0.07062893
000040 ae df ba 3d 74 19 e7 bd f4 33 1c 3e b6 01 2e be
       0.09124695 -0.11284152 0.15254194 -0.1699284
000050 4c 69 11 3d b4 f9 cf bd 78 74 1a 3d 2c f1 2f 3e
       0.03550081 -0.10155049 0.03770873 0.17181844
000060 04 83 aa bc 7a 5d 25 3d 8b 79 8c bd 5b 05 b9 bd
       -0.020814426 0.04037235 -0.0685912 -0.090342246
000070 c8 bd 17 be ff c3 cd 3d 46 ce 06 bb 3d 5d 77 3d
       -0.1481849 0.10047149 -0.0020569726 0.060391653
000080 4b 50 08 be 3e 2c 14 be 4e 82 22 be ba 25 cb bd
       -0.1331188 -0.14470002 -0.1587002 -0.09919305
000090 e8 6b b9 bc 33 57 d7 bc 54 81 9b 3d ce 01 aa bd
       -0.022634462 -0.026286697 0.07593027 -0.083011255
0000a0 78 14 2e 3e 44 70 a2 bd 6f b5 27 be ad dd 06 3e
       0.16999996 -0.07931569 -0.16377805 0.131705
0000b0 f0 e7 e5 bd 52 1f 89 3c ec a3 88 bc ed f1 13 bd
       -0.11225879 0.016738568 -0.016679727 -0.03611939
0000c0 ce db 18 39 a8 29 2f be 55 0a 20 3e 30 70 e7 bd
       0.00014577733 -0.17105734 0.15628941 -0.11300695
0000d0 23 a7 da 3d ac 2a d3 bd 12 67 30 bd 4b d1 80 bb
       0.1067641 -0.103108734 -0.043067046 -0.0039311997
0000e0 97 98 8c bd 19 5a 9a bd fd 0a 16 be 20 75 f5 bd
       -0.06865042 -0.07536716 -0.14652629 -0.119852304
0000f0 44 2a 05 bc aa e9 52 bd 48 88 c7 bc f5 82 36 3d
       -0.008127753 -0.05149237 -0.024356976 0.044558484
000100 bc 53 b7 bc 00 ac 28 be 58 63 84 bd a5 56 59 3d
       -0.022378795 -0.16471863 -0.06464261 0.053061146
000110 ff b4 80 3d cc 84 ac 3d d5 6f 22 3c 57 ba f3 3d
       0.06284522 0.084237665 0.009914358 0.11900776
000120 f7 70 f3 bd 1c 98 15 be ee 79 3d bd 67 d8 92 3a
       -0.11886781 -0.14608806 -0.04625886 0.0011203409
000130 c6 4d 01 3e 56 97 cd bd 8a b2 f9 bd a5 57 97 bb
       0.12627324 -0.10038631 -0.12192257 -0.0046186023
000140 34 65 35 3d b7 dc 22 be 43 f7 8f bd cc 58 0c be
       0.044285968 -0.15904509 -0.07029583 -0.13705748
000150 a4 a0 26 3d 76 8c 84 3c 71 49 1f be e9 10 ee bd
       0.040680543 0.016180258 -0.1555536 -0.11624319
000160 b0 06 04 3c 65 92 3c bd 68 c2 09 be a5 de 55 bd
       0.008058235 -0.04603805 -0.13453066 -0.052214283
000170 c8 a4 23 be 47 47 a5 bc 0e bb a2 bc cc f3 17 3c
       -0.15980828 -0.02017559 -0.019864585 0.009274434
000180 00 01 72 3c 49 f9 f4 bc e4 57 0e 3e 4c b7 7e bd
       0.014770746 -0.029904025 0.13900715 -0.062186524
000190 fd 79 a1 3d 2b 0c 86 3d d6 17 af bc 6c c0 02 be
       0.078845955 0.065452896 -0.02137367 -0.12768716
0001a0 3b 41 16 be ca 58 45 3d af b6 59 3d 4e 0c d8 3d
       -0.14673321 0.04818038 0.053152736 0.10549222
0001b0 e4 3a 9e bd 57 cf 0f 3e 11 6d 32 3e fe 6c e1 bc
       -0.07726076 0.14043938 0.17424418 -0.027517792
0001c0 7a ee 8b bd c8 07 60 bd e7 4b 1a be 45 ad cb 3d
       -0.06832595 -0.05469492 -0.15068017 0.09945158
0001d0 6c a5 98 3c 4f 85 a3 3d 87 c4 e4 3d 6f a2 97 bd
       0.018633567 0.07984411 0.11170297 -0.074040286
0001e0 f9 d2 ef 3a 75 4a 10 3e dd 88 09 be f4 93 1c 3e
       0.0018297128 0.14090903 -0.13431115 0.15290815
0001f0 31 86 b8 3d ae e7 5e bd 7b e6 10 be 4e 9f be 3d
       0.0900997 -0.054420166 -0.14150421 0.09307729
000200 66 40 aa 3d 22 c2 a1 bd f6 3f aa 3d f2 8d 52 3d
       0.08313064 -0.07898356 0.08312981 0.0514049
000210 08 9c 2f 3e d5 b2 b6 3d cc 79 de 3c f2 c3 30 be
       0.17149365 0.08920828 0.027157687 -0.17262247
000220 50 24 11 3e b8 1b 19 3e 6e 04 46 bd cf 2a 5f bc
       0.14174008 0.1495198 -0.04834407 -0.013621046
000230 75 64 e7 bb a9 99 2f bc 94 27 c1 3d bd a1 c4 3c
       -0.007061536 -0.010717788 0.09431377 0.024002904
000240 c4 09 1b be 66 51 66 3d c1 67 da bd a0 63 4b 3d
       -0.15140444 0.05622997 -0.10664321 0.049655557
000250 7f b0 9a 3d db 0b aa bd 53 51 f2 3d ea ab 8d 3b
       0.07553195 -0.083030425 0.118319176 0.0043234723
000260 a6 a9 b4 bd 14 56 18 3e fe ec e3 3d 8a fb 01 3e
       -0.0882142 0.14876586 0.11129187 0.12693611
000270 62 74 f5 bd f8 ba 07 be 45 01 1d be 56 46 e7 3d
       -0.11985089 -0.13254917 -0.15332516 0.112927124
000280 fc e5 d0 3d ea cb d9 bd f5 51 8c 3d 6c 28 10 3d
       0.10200116 -0.10634597 0.068515696 0.0351948
000290 fd 2d 97 bd 86 bd bc 3b a3 7c d7 bd 33 cd 50 bd
       -0.073818184 0.0057598976 -0.105218194 -0.050976943
0002a0 dd a6 8c 3d d2 11 cb 3c 01 85 04 be bc e7 33 3d
       0.06867764 0.02478877 -0.12941362 0.04392217
0002b0 65 7c 0e bd f1 81 01 be 5d f8 24 be 95 f4 fe 3b
       -0.0347866 -0.12647225 -0.16110368 0.0077806213
0002c0 73 12 03 be 57 a0 d9 bd 14 55 2b 3d 3b e1 34 3c
       -0.12800007 -0.106262855 0.041829184 0.011040027
0002d0 b4 a0 a0 bd 0d a9 dd 3c 9f 2f b3 3d 42 1a 8a bd
       -0.07843152 0.027058149 0.087493174 -0.067432895
0002e0 6f 4a 7e bd fc fd f6 3c fd 6b 2b 3d 90 b9 75 3d
       -0.062082704 0.030150406 0.041851033 0.05999142
0002f0 24 34 f3 3d 58 5f 33 bc 62 d9 73 3d 56 19 cd bd
       0.118751794 -0.010948025 0.059533484 -0.10014598
000300 8b 30 b3 bc 50 18 04 3e 9c d7 2c be 19 72 e9 bd
       -0.021873733 0.128999 -0.16879123 -0.113987155
000310 e1 2e 1a be b9 dc 13 3e b0 f0 9c bc 97 80 23 3e
       -0.15056945 0.14439668 -0.019157737 0.15967022
000320 0e 14 c0 bd 25 b9 41 bd 44 77 e5 3d 9b 05 32 be
       -0.09378825 -0.04729571 0.11204389 -0.17384951
000330 0e d6 2e be 98 df f1 bd d8 6c 51 3b bc 35 23 be
       -0.17073843 -0.11810225 0.0031955745 -0.15938467
000340 f5 e3 03 3d e7 ba 16 3e 61 67 10 bd 8f 5e fa bc
       0.03219982 0.14719735 -0.03525484 -0.030562667
000350 50 f1 1c be 54 18 17 bd 0f 36 69 3c c6 ee 11 3d
       -0.15326428 -0.036888435 0.01423408 0.035628103
000360 e8 32 6b bd fb 94 d9 bd e6 a9 ba bd b3 ab f5 3d
       -0.057421595 -0.10624119 -0.09114437 0.1199564
000370 74 b2 c1 bd 23 1c 60 3c 1a 3a f4 bc b7 2f 8f bd
       -0.09457865 0.013678583 -0.029812861 -0.06991523
000380 eb 36 f6 bb a5 8f 06 3e d5 11 07 3e b0 ef 14 bd
       -0.007513871 0.13140734 0.13190396 -0.036361396
000390 7a cf 0e bd d0 e7 c7 bd ae 7c a6 bd 0e 18 f4 bc
       -0.034865834 -0.097610116 -0.081292495 -0.029796626
0003a0 44 ee 04 3e 4c 05 c9 3c 87 95 18 be b8 92 37 bd
       0.12981516 0.024538659 -0.1490079 -0.044817656
0003b0 dd b8 19 be fe 9a 24 3e 96 26 82 3c be f7 33 bd
       -0.15011926 0.1607475 0.01588754 -0.043937437
0003c0 a6 c4 8d 3d 47 a8 26 be 0f 9f 6a bd 4f 8c 84 3c
       0.06922273 -0.1627513 -0.057280596 0.016180186
0003d0 db 8a 00 3e e1 94 10 3e 72 82 ba bb 05 3d 32 be
       0.12552969 0.14119293 -0.00569182 -0.1740609
0003e0 d6 29 02 3d a7 77 c7 bd ec f1 20 3e 39 f5 3f bd
       0.03177818 -0.09739619 0.15717286 -0.046864722
0003f0 77 03 45 bd 38 dd d7 bc 07 41 25 3e 78 6f 9c 3d
       -0.048099007 -0.026350603 0.16138087 0.076384485

bn1.weight f4 [400]
000000 be 86 1d 3f 16 55 3e 3f 84 32 17 3f 5c 72 bc 3e
       0.61533725 0.7434858 0.59061456 0.36806
000010 3e 2d ee 3d c9 9a bf 3e 1f 66 a8 3e ad 2b 2a 3b
       0.11629723 0.3742278 0.32890412 0.0025965974
000020 2a 04 15 3f 21 1c ea 3e 74 97 f1 3e 61 72 ea 3e
       0.5820948 0.45724586 0.47185862 0.4579039
000030 eb 7e 84 3e b4 63 2d 3f 7f 4a d5 3e 84 10 c8 3e
       0.2587808 0.6773026 0.41658399 0.390751
000040 12 03 13 3f 6f 7d 28 3f 0f 0e a4 3a e8 42 2c 3f
       0.5742656 0.65816396 0.0012516397 0.6728959
000050 53 1c 28 3f bc ba d4 3e 6c 79 0f 3f cb 88 a6 3e
       0.6566822 0.41548717 0.5604465 0.3252624
000060 3e 42 8b 3e 07 b8 d8 3e 6c c1 10 3e cc 2c 1b 3f
       0.27198976 0.42327902 0.14136285 0.6061523
000070 c7 85 b3 3e 30 62 c5 3e 95 2d 4a 3e 3b f7 1b 3f
       0.35063002 0.38551474 0.1974395 0.6092412
000080 87 c0 3d 3f a5 f0 0b 3f f0 5d f5 3e 99 a1 3c 3f
       0.741219 0.5466407 0.4792323 0.7368408
000090 ed 9b 0b bc 44 95 d4 3e 4d 19 96 3e 7d 4b 28 3f
       -0.008521062 0.4152013 0.29316178 0.65740186
0000a0 9e ee a7 3e 21 00 33 3f 2f d0 2a 3f af 29 14 3f
       0.32799238 0.6992207 0.6672391 0.57876104
0000b0 fd 12 62 3e 53 40 07 3f 2c e2 01 3f 6a 25 14 3f
       0.22077556 0.52832526 0.50735736 0.5786959
0000c0 05 c7 be 3e 84 fb 41 3f c8 a3 18 3f 93 15 13 3f
       0.37261215 0.7577441 0.5962491 0.57454795
0000d0 8a f9 1d 3f e4 bf 2a 3e 96 b1 72 3e 31 49 d6 3e
       0.6170889 0.16674763 0.23700556 0.41852716
0000e0 68 07 e1 3e c9 e0 2d 3f 2c 43 58 3f e5 3a 1f 3f
       0.43950963 0.6792112 0.84477496 0.6219924
0000f0 dd f0 0e 3f e6 6c 16 3f 5a 6c ff 3e da 1f 90 3e
       0.5583628 0.58759916 0.49887353 0.281493
000100 30 d3 15 3f f2 9b ba 3e 13 31 be 3e 48 0c 67 3e
       0.5852537 0.36447102 0.37146816 0.22563279
000110 b6 cc 11 3f 49 dd 5b bb 4e 2d 0a 3f 60 66 b7 3e
       0.5695299 -0.0033548644 0.5397538 0.35820293
000120 ea 61 cc 3e d0 a0 07 3f d9 1b fb 3e bf 8d 24 3f
       0.39918453 0.52979755 0.49044684 0.6427879
000130 75 ce 98 3e 01 7d 03 3f 8d 9a b0 3e a7 08 03 3f
       0.29845014 0.51362616 0.34492913 0.5118508
000140 0f e4 ab 3e cd 87 c0 3e f8 cb cc 3e 9e 21 9d 3e
       0.33572432 0.37603608 0.39999366 0.3068971
000150 bf 14 38 3b 0c 59 d4 3e 52 be 1d 3f da 61 a6 3e
       0.0028088538 0.41474187 0.6161853 0.3249653
000160 4e e7 1c 3f 6a dd 3b 3e 1d 88 0d 3f 02 88 31 3f
       0.6129044 0.18346182 0.5528582 0.69348156
000170 69 ec ef 3e 97 1c 09 3f 42 af 43 3f 06 e1 25 3f
       0.46860054 0.5355925 0.764393 0.64796484
000180 6c cd 13 3f 42 11 d0 3e d9 66 21 3f fc b9 ec 3e
       0.57735324 0.40638167 0.6304756 0.46235645
000190 30 20 a2 3e 42 d0 0a 3f 09 60 d8 3e 4f e4 a6 3e
       0.31665182 0.54224026 0.4226077 0.3259606
0001a0 97 9f 90 3e 63 ef 01 3f ea 42 fc 3e c3 0e 91 3e
       0.28246757 0.507559 0.492698 0.28331575
0001b0 5a 2d aa 3e b3 2c 9e 3e d6 5e 12 3f 0a 0b 0f 3f
       0.33237725 0.30893478 0.5717596 0.5587622
0001c0 32 35 e8 3d cb c4 fb 3e 88 4a df 3e 0b 24 0f 3f
       0.11338271 0.4917358 0.4361155 0.5591437
0001d0 63 c8 93 3e 8c 5c 19 3e dd 54 a8 3e 29 a2 1d 3f
       0.2886382 0.1497671 0.32877246 0.6157556
0001e0 6a 73 84 3e 3e 28 6d 3e 27 0c a7 3e fe 2c 0f 3f
       0.25869304 0.23159882 0.3262646 0.5592803
0001f0 c5 04 28 3f ac ff 02 3f 1a 2d 27 3f 1c d8 7f 3e
       0.6563228 0.51171374 0.65303195 0.24984783
000200 2e ef c6 3e 78 f9 02 3f f9 a2 18 3f 8f cc 96 3e
       0.38854355 0.5116191 0.59623677 0.2945294
000210 06 b1 e5 3e 70 b7 20 3f 2a 00 0f 3f db 36 97 3e
       0.4486162 0.62779903 0.55859625 0.2953404
000220 3a 31 83 3e da e1 ff 3e 37 d0 8d 3e 17 52 21 3f
       0.25623494 0.49977 0.27697918 0.63015884
000230 dd 28 f5 3e 99 7c 08 3f 67 a8 15 3f 66 8b f4 bc
       0.4788274 0.5331512 0.58460087 -0.029851627
000240 24 2a 1f 3f 52 9f 0a 3f 04 ee 40 3e 0c b7 be 3e
       0.62173676 0.54149354 0.18840796 0.3724903
000250 f6 8e 1f 3f 26 d2 0a 3f 64 60 0e 3f a7 eb d1 3e
       0.62327516 0.5422691 0.5561583 0.410001
000260 c7 f3 f2 3e 16 bc d8 3e 4e 38 fe 3e bb af 34 3f
       0.47451612 0.42330998 0.49652332 0.70580643
000270 e9 5c 8c 3e 1f 73 f1 3e ac 24 f5 3e ee 95 d8 3e
       0.27414635 0.47158143 0.4787954 0.42301887
000280 3c ec f6 3e 4d a2 87 3e 0b dd f8 3e fd 73 c0 3e
       0.48227108 0.26491013 0.48606142 0.37588492
000290 5f 95 0d 3f c2 dc c3 3e 49 07 fe 3e 3c 3d 1a 3f
       0.5530605 0.38254362 0.49614933 0.60249686
0002a0 83 47 75 3e 09 79 44 3f ea 10 1f 3f d9 ec e2 3e
       0.23953061 0.76747185 0.62135184 0.44321325
0002b0 eb 40 e4 3e 3f 4b 3f 3e cd 87 f4 3e 23 96 87 3e
       0.44580778 0.18681048 0.47759858 0.26481733
0002c0 58 a1 17 3f 00 87 5d 3e 10 64 26 3f aa 9b e6 3e
       0.59230566 0.2163353 0.64996433 0.45040637
0002d0 8d c5 3d 3f 49 e1 6e 3e 0a 2f 2c 3f 56 bc a9 3e
       0.74129564 0.23328127 0.67259276 0.331515
0002e0 c6 3c 1c 3c 9d 62 17 3f 08 36 11 3f 1d 0b af 3e
       0.009535974 0.59134847 0.5672307 0.34188166
0002f0 b3 80 73 3e 4b ed 3a 3f 1d dd 5f 3e f1 62 12 3f
       0.23779564 0.7301833 0.21861692 0.5718222
000300 2d 62 d4 3e 5f 0a e4 3e 65 21 c3 3e 63 50 0e 3f
       0.41481152 0.44539163 0.38111416 0.5559141
000310 10 5b c2 3e 79 ae dd 3e 03 88 45 3e 99 94 91 3e
       0.379601 0.43297175 0.19290166 0.28433684
000320 09 61 e2 3e a9 b7 1f 3f 72 ad 81 3b 41 bc 2c 3f
       0.44214657 0.6238962 0.003957444 0.6747475
000330 9f df 4a 3f 0b 73 0a 3f 99 77 0e 3f 99 8b c5 3e
       0.7924747 0.5408179 0.5565124 0.38583067
000340 59 b1 36 3f c0 15 fb 3e 29 9b 08 3f 2e 30 11 3f
       0.7136436 0.4904003 0.53361756 0.5671414
000350 76 bf ba 3e 4f fd cd 3e 0e bb 8f 3e 5c 5e 0a 3e
       0.36474198 0.40232322 0.280724 0.13512558
000360 be f0 b5 3e b1 7b 97 3e 1d 35 a3 3e 8a 56 04 3f
       0.35535234 0.29586557 0.3187646 0.5169455
000370 18 16 8a 3e 68 27 0f 3f e5 1b 21 3f 13 26 f7 3e
       0.2696998 0.55919504 0.6293319 0.48271236
000380 8f 83 1a 3f 5c c2 ec 3e 33 ad 42 3e f8 67 15 3c
       0.6035699 0.46242034 0.19011383 0.009119026
000390 aa a9 c7 3e 99 d6 ef 3e b5 33 15 3f fe 84 00 3f
       0.3899663 0.46843413 0.58282024 0.5020293
0003a0 dc 08 bf 3e 13 da 62 3e e8 ef f7 3e 81 b1 f9 3e
       0.37311447 0.22153501 0.4842522 0.48768237
0003b0 72 8f 23 3f c0 9e 1d 3f d6 47 08 3f fe 70 1a 3f
       0.63890755 0.6157036 0.5323461 0.6032866
0003c0 cb 37 fa 3e 5e 0f 36 3f b8 6e 31 3f e6 96 03 3f
       0.48870692 0.711172 0.6930957 0.5140213
0003d0 40 db 30 3f cb e3 cc 3e 2c 5e 62 3e eb a3 2b 3e
       0.6908455 0.40017542 0.22106236 0.16761748
0003e0 25 66 e9 3e e8 4c 32 3f bb 95 c7 3e 68 7a 13 3f
       0.45585743 0.696486 0.38981423 0.5760865
0003f0 f4 8c 01 3f ba fc 00 3f ba 09 d3 3e f9 90 ee 3e
       0.506057 0.5038563 0.41218358 0.4659498

bn1.bias f4 [400]
000000 65 90 03 bf 36 f9 82 bf b0 b9 44 bf 47 81 96 be
       -0.51392204 -1.0232303 -0.76845837 -0.29395506
000010 88 8c 91 bd f3 b5 17 bf 2d 72 98 be 4e 72 46 bd
       -0.07106882 -0.5926201 -0.2977461 -0.048448853
000020 d8 b7 63 bf 72 d8 5b bf ea 26 14 bf fb 61 58 bf
       -0.889524 -0.85877144 -0.5787188 -0.84524506
000030 d5 8f 55 be 76 4f 8d bf 50 7d f5 be 96 d4 c0 be
       -0.20855649 -1.1039875 -0.47947168 -0.3766219
000040 3b 16 9e bf 2c d7 bb be 40 5d 5b bc 26 ed 98 bf
       -1.2350534 -0.366876 -0.013388932 -1.1947372
000050 11 e9 71 bf ba 2f 39 3d dc 74 1e bf 06 5a 6e be
       -0.94496256 0.04521153 -0.61897063 -0.23276529
000060 02 de 3f be d8 77 46 bf 59 70 52 ba 92 3b 15 be
       -0.18737033 -0.7752662 -0.00080276054 -0.14573506
000070 af ea cb be 13 0a f5 be bb e2 7c bf 99 41 a2 bf
       -0.39827487 -0.4785925 -0.98783463 -1.2676269
000080 ab 3f 6c be c9 2f 5f bf 9f 46 6e bf f3 4c 86 bf
       -0.23071162 -0.8718229 -0.9307651 -1.0492233
000090 41 ae c8 bd 19 97 88 be a7 22 52 be 04 a2 78 bf
       -0.09798861 -0.26677778 -0.20521031 -0.97122216
0000a0 03 0f b9 be f9 fd 11 bf f1 f3 6c bf d9 82 47 bf
       -0.36144266 -0.57028157 -0.92559725 -0.7793403
0000b0 8a 50 88 be c3 a7 89 bf 3a ae 60 bf aa 37 43 bf
       -0.26623946 -1.0754322 -0.8776585 -0.7625681
0000c0 17 b6 df be 80 4b 90 bf 99 af 62 bf 56 5c 65 bf
       -0.4369361 -1.1273041 -0.8854919 -0.8959402
0000d0 1e b3 45 bf cc c7 29 be 38 f9 8d bd 06 30 82 bf
       -0.77226436 -0.16580123 -0.069323 -1.0170906
0000e0 58 fe 0b bf 81 c0 a6 bf af 08 a8 bf 7b be 06 bf
       -0.5468497 -1.3027498 -1.312765 -0.526344
0000f0 6d c8 49 bf 91 ca 1f bf 9d b1 b2 bf 8f 58 1b bf
       -0.7882145 -0.62418467 -1.3960453 -0.60682005
000100 31 b9 78 bf e2 28 81 be 81 9d 8b be 98 02 9b 3d
       -0.9715758 -0.25226504 -0.27268603 0.07568854
000110 09 55 80 bf d5 83 92 bd 4d b5 8f bf a4 48 8c be
       -1.0025951 -0.07154051 -1.1227204 -0.2739917
000120 21 65 1b bf 5b e4 2a bf 53 07 fc be 88 94 17 bf
       -0.60701185 -0.6675469 -0.49224338 -0.59211016
000130 62 50 0f be 3c 00 76 bf 7f 1a f9 be 55 b5 60 bf
       -0.13995507 -0.9609411 -0.48653027 -0.8777669
000140 dd 0d f8 be 48 ac 0e be c6 be f7 be 9f 1e 88 be
       -0.48448077 -0.13932908 -0.48387736 -0.26585862
000150 e4 53 0d bd c1 b4 3e bf 3d 5f d2 be 6b e3 f8 be
       -0.034503832 -0.7449456 -0.41088286 -0.48611006
000160 52 67 77 bf 98 87 12 be e1 9b 28 bf 65 b1 70 bf
       -0.9664203 -0.14309537 -0.6586285 -0.9402068
000170 b4 5a 6a bf 9f a5 23 bf e0 99 80 bf c0 dc 43 bf
       -0.9154465 -0.6392459 -1.0046959 -0.7650871
000180 6b 5f 22 bf 5c 7b 4b bf 86 f9 49 bf 35 d4 ef be
       -0.63426846 -0.79485106 -0.7889637 -0.4684159
000190 13 54 c2 be 82 67 3c bf fb 55 e1 be 9c 7f 98 be
       -0.3795477 -0.7359544 -0.4401091 -0.29784858
0001a0 c5 97 71 bd 14 47 3a bf bf b9 7c bf a1 ce 9b be
       -0.05898263 -0.72764707 -0.98720926 -0.30431083
0001b0 69 d8 93 be 70 95 b3 be 9d a9 5e bf 2c fc 2c bf
       -0.28876045 -0.3507495 -0.8697756 -0.67572284
0001c0 af 5a 8b 3d 80 c2 89 bf 75 bb b4 be c9 f9 07 bf
       0.06804406 -1.0762482 -0.35299268 -0.53115517
0001d0 f6 38 57 be fe 30 f0 bc ec 2a e7 be 2d 04 59 bf
       -0.21017823 -0.029320236 -0.45149934 -0.84771997
0001e0 95 b1 62 3c df 6c b7 be 9d a7 02 bf e5 cb 7c bf
       0.013836284 -0.3582525 -0.5103701 -0.9874862
0001f0 09 34 6d bf dc ee 9a be e1 3f 25 bf dc 66 93 be
       -0.92657524 -0.3026036 -0.64550596 -0.28789413
000200 c0 82 40 bf f8 59 ea be ed df 2c bf 4d 36 91 be
       -0.7519951 -0.45771766 -0.67529184 -0.2836174
000210 d6 4f 05 bf c2 d7 55 bf ce 48 21 bf cf d4 14 3b
       -0.52074945 -0.83532345 -0.63001716 0.0022709852
000220 9b 0c 0a bf 77 e7 39 bf 9b bd b8 bd 2b 90 50 bf
       -0.53925484 -0.7261881 -0.090205394 -0.8146998
000230 e1 a5 2e bf 7e a6 b8 bf ff 38 6b bf a0 6e 3f 3f
       -0.6822186 -1.4425809 -0.91883844 0.74778175
000240 1d 90 68 bf 71 94 6e bf cd 2c 75 bd 6d 52 0e bf
       -0.908449 -0.93195254 -0.05985718 -0.5559452
000250 d2 3f 4e bf 10 dd 4a bf 71 18 b4 bf 43 b7 09 bf
       -0.8056613 -0.79243565 -1.4069959 -0.5379526
000260 59 67 1b bf dc e0 06 bf 76 14 47 bf c2 6b f1 be
       -0.6070457 -0.5268686 -0.77765596 -0.47152525
000270 d2 e9 c9 be 7d f7 3a bf d3 9d 12 bf 92 9e fb be
       -0.39436203 -0.7303389 -0.5727207 -0.49144417
000280 51 eb 10 bf 7e e0 1c 3e 63 b0 81 bf 35 a2 1a bf
       -0.56609064 0.15320012 -1.0131954 -0.6040376
000290 69 5d 8a bf af 37 d4 be c2 67 04 bf 76 73 5f bf
       -1.0809757 -0.41448733 -0.5172082 -0.87285554
0002a0 f8 d3 59 be 03 34 99 bf 22 df 7d bf d8 95 3b bf
       -0.21272266 -1.1968998 -0.991686 -0.7327552
0002b0 cb 2a 13 bf b4 af 02 3e 95 e1 23 bf 93 38 4c be
       -0.5748717 0.12762338 -0.64016086 -0.19943456
0002c0 86 2b 8c bf 9d d4 15 3d 76 a0 59 bf 2a a0 1f bf
       -1.0950782 0.036579717 -0.8501047 -0.62353766
0002d0 ff 87 c3 bf 74 3b 55 be d7 87 80 bf 2a 60 ad 3c
       -1.5275878 -0.20823461 -1.0041455 0.021164019
0002e0 c7 8d 03 be 9f 79 21 bf 5f 25 ec be a4 2e 95 bf
       -0.12847053 -0.63076204 -0.46122262 -1.1654859
0002f0 26 26 d9 bc ec c8 92 bf 8c 64 08 be 26 4c 51 bf
       -0.026507448 -1.1467566 -0.13319606 -0.8175682
000300 27 d2 8a be 51 3d 1f bf 20 68 e1 be 6f a2 6a bf
       -0.2711346 -0.62202936 -0.44024754 -0.91654104
000310 e6 6c b8 be d6 7f 07 be 71 8a bb bd 99 86 cb be
       -0.36020583 -0.1323236 -0.09157265 -0.39751127
000320 c7 59 0c bf 9f 06 a5 bf 03 80 92 bd 08 71 8a bf
       -0.5482449 -1.2892646 -0.071533225 -1.0815744
000330 21 97 8a bf c9 4b 36 bf 76 38 45 bf cc 82 e8 be
       -1.0827371 -0.7120939 -0.7703928 -0.4541229
000340 22 c4 77 bf 4f c4 17 bf 60 7e 70 bf a5 5b d2 bd
       -0.9678365 -0.5928392 -0.9394283 -0.10271386
000350 02 ec ed be 54 df 28 be 64 13 9e bf 7c b0 e6 bd
       -0.46469122 -0.16491443 -1.2349668 -0.112641305
000360 4c f2 db be 6e 35 e2 be fe 21 19 be dc af 97 bf
       -0.42958295 -0.4418139 -0.14954373 -1.1850543
000370 25 9f 00 bd e6 f9 16 bf 67 78 9a bf 86 6d 78 bf
       -0.031401772 -0.58975065 -1.2067994 -0.9704212
000380 71 f0 b9 bf c3 ea 2e bf d2 be e6 bd d7 d8 66 bd
       -1.4526502 -0.6832697 -0.11266865 -0.05635914
000390 01 ab 1f bf 93 55 06 bf 78 69 b6 bf a6 65 19 bf
       -0.62370306 -0.52474326 -1.4250937 -0.5992073
0003a0 ae 8c d1 be aa e1 cb be 97 b9 25 bf 1e ca 90 bf
       -0.40927643 -0.39820606 -0.6473631 -1.1311681
0003b0 61 fe 5e bf 5a 96 21 bf 7b 9a a0 bf 75 5a 96 bf
       -0.871069 -0.63120043 -1.2547144 -1.1746355
0003c0 52 a1 8a be 3a 15 25 bf fc c3 97 bf 1b ce 88 bf
       -0.27076203 -0.64485514 -1.1856685 -1.0687898
0003d0 48 74 8f bf e4 a8 0a bf e1 b4 cf bd 62 af 3c bd
       -1.1207361 -0.54163957 -0.10141922 -0.046065696
0003e0 31 4d 54 bf 41 cc 45 bf 90 c0 35 bf 2d 79 31 bf
       -0.82930285 -0.7726479 -0.7099695 -0.69325525
0003f0 11 6a 27 bf 86 20 88 bf ab e0 ae bf ef ee 40 bf
       -0.6539622 -1.0634925 -1.3662313 -0.75364584

bn1.running_mean f4 [400]
000000 4e 5a 61 be 17 18 18 40 79 1f c2 40 20 63 06 c0
       -0.22007105 2.3764703 6.066342 -2.0998
000010 cb 74 1c bf 83 9c 4d 40 40 6b 13 40 0c ca d9 ba
       -0.6111571 3.2126777 2.303421 -0.0016616001
000020 60 d2 18 bf a4 e0 49 c0 b0 ef 97 40 43 43 37 bf
       -0.59696007 -3.154336 4.7480087 -0.7158701
000030 0f e7 2c 40 b4 56 eb c0 a2 c2 22 3e a1 3e ea bf
       2.7016027 -7.354334 0.15894559 -1.8300363
000040 91 b0 ba 3f 53 9b 89 c0 11 25 ae 3e b4 87 8e c0
       1.4585134 -4.3002105 0.34012654 -4.4540653
000050 00 2f 40 c0 c1 da 50 3f 58 7a 8c c0 50 ff 91 40
       -3.0028687 0.8158379 -4.3899345 4.562416
000060 7c a3 8c c0 3b 8b cd c0 d4 bc cf c0 1f b8 70 bf
       -4.3949566 -6.423246 -6.4918003 -0.94030946
000070 d5 d9 ac 3f 8d 4b 21 c0 14 1d 41 c0 40 09 5b c0
       1.3503977 -2.5202363 -3.0173998 -3.4224396
000080 46 10 68 bf 4c 24 70 40 c4 15 a4 40 b8 07 17 c0
       -0.9064983 3.7522154 5.127657 -2.359846
000090 8e 8b f5 3d dc 6f 8c 3f ef 82 59 40 73 27 21 bf
       0.119895086 1.0971637 3.3986166 -0.6295082
0000a0 35 ed a2 3f ab 1b 95 be ab be 87 c0 fc cf 37 bf
       1.272864 -0.2912267 -4.242025 -0.71801734
0000b0 77 ab 68 3e 7a aa eb 3f fb b6 e8 40 55 f9 f8 3e
       0.22721659 1.84114 7.2723365 0.48627725
0000c0 6d 53 d3 c0 ae 03 c7 bf 98 29 b1 40 76 b6 1a bf
       -6.603934 -1.5547998 5.5363274 -0.60434663
0000d0 28 92 0d 3f d7 1c c6 40 19 9c ca 3f 49 ba d7 bf
       0.5530114 6.1910205 1.5828887 -1.6853725
0000e0 31 29 c8 3f f5 c3 8a be 61 b4 83 3f 4b 7f 8f c0
       1.5637571 -0.27102628 1.0289422 -4.4842887
0000f0 62 e1 6c c0 a0 1a a5 bf e4 42 d4 c0 2c e8 01 41
       -3.7012563 -1.289875 -6.6331654 8.119183
000100 4e 39 db 3f 58 7d 78 bf 1c 2a 23 c0 99 f1 a5 3f
       1.7126863 -0.9706626 -2.5494452 1.2964355
000110 f9 16 0e c0 00 49 ea bd 58 dd a7 bf 8e 3d 0e 40
       -2.2201521 -0.11439705 -1.3114424 2.222507
000120 f6 e6 d1 c0 da cd 0a be 8e 78 62 bf af 40 53 c0
       -6.5594435 -0.13555089 -0.884652 -3.300823
000130 6c 47 a6 40 4e c8 ab bf 13 3d 2f 40 83 d5 aa 40
       5.1962185 -1.3420503 2.7381027 5.3385634
000140 c3 b7 7b 40 49 02 21 3f 12 40 bb bd f9 6a bd 40
       3.933091 0.6289411 -0.0914308 5.919308
000150 a3 cc 3d be 37 8f 41 40 f3 a4 04 bf 84 c1 14 c0
       -0.18535094 3.0243661 -0.5181419 -2.3243113
000160 d9 d7 f5 3f 75 55 70 40 3a 43 39 bf 79 67 10 40
       1.9206496 3.755216 -0.72368205 2.2563155
000170 92 f7 a9 c0 f3 6a 06 c0 fc 0c f7 3f 4d 29 d6 bf
       -5.311471 -2.1002777 1.9300838 -1.6731354
000180 36 82 59 40 ad bf b5 40 fc b7 8d 40 62 e6 22 c0
       3.3985724 5.679648 4.428709 -2.5453115
000190 15 da f0 3f 2f a6 a4 c0 22 ff af 3f d2 1e 84 40
       1.8816553 -5.145286 1.3749735 4.1287622
0001a0 32 8f 21 40 aa 4d a9 bf db 8d 00 bf bd 1b 95 bf
       2.524365 -1.3226826 -0.50216454 -1.164909
0001b0 20 e4 26 40 77 e1 7e 40 45 f8 8d 3f 78 c9 68 3f
       2.6076736 3.9825113 1.1091391 0.90932417
0001c0 2b 80 e3 bf 89 84 77 c0 7c 8f 95 bf 84 e3 71 be
       -1.7773489 -3.8674643 -1.1684413 -0.23621947
0001d0 8b 19 d5 bf b9 2a 97 3f 42 be 01 41 79 dd f7 bf
       -1.664842 1.1809913 8.10895 -1.9364463
0001e0 d9 c4 02 40 ea 15 0d bf 19 e5 64 c0 56 26 31 bf
       2.0432646 -0.55111563 -3.576483 -0.6919912
0001f0 48 f0 a1 be 84 c6 a5 c0 55 a8 a4 c0 cf 43 b6 c0
       -0.31628633 -5.180483 -5.1455483 -5.6957774
000200 5f 27 a7 c0 f6 97 31 40 31 7d 49 bf c2 46 7e 3d
       -5.223556 2.7749 -0.7870665 0.0620792
000210 a2 1e 5e 40 f6 5d 1c c0 6f e1 b0 40 b5 5f 97 3d
       3.4706197 -2.443235 5.5275187 0.073913015
000220 25 63 b1 bf d5 bb a1 c0 37 44 62 3f 6c 07 ed 3f
       -1.3858382 -5.0541787 0.8838534 1.851789
000230 60 61 54 40 14 48 50 40 84 c0 aa 40 a3 3f 47 40
       3.3184433 3.2543993 5.3360004 3.113259
000240 c5 8d 97 c0 99 25 06 bf 59 dc da 40 0e 1d 9e c0
       -4.736056 -0.5240112 6.839398 -4.9410467
000250 20 a1 6f 40 9e d2 d6 bc 74 6b 11 c0 13 5e 82 c0
       3.7442093 -0.026223477 -2.2721834 -4.0739837
000260 80 eb 36 40 57 98 e7 3f f2 bc 70 bf 89 b4 12 bf
       2.8581238 1.8093365 -0.9403831 -0.57306725
000270 a9 5d a7 c0 b1 e3 18 40 40 db 9d 3f 21 6c 16 c0
       -5.230183 2.3888972 1.2332535 -2.3503497
000280 df 1d 3e bf 94 69 b9 40 10 fc d5 bf 69 e6 de c0
       -0.7426433 5.794138 -1.6717548 -6.9656262
000290 22 24 d5 c0 a0 7f 1a c0 db b1 ec be 42 59 04 c0
       -6.6606607 -2.4140396 -0.46229443 -2.0679479
0002a0 01 7e 45 40 52 fe af be 59 d5 1b c0 72 6d 75 c0
       3.0858157 -0.34373719 -2.4348967 -3.834805
0002b0 85 71 dc bf 1b 8a e5 3c 5d 05 ff b8 ad f7 18 3f
       -1.7222143 0.028019955 -0.000121603465 0.59752923
0002c0 1f fe 72 40 32 39 54 40 d3 50 b8 bf 34 e4 67 c0
       3.7967603 3.315991 -1.4399666 -3.6233034
0002d0 8b 0b f8 c0 83 c9 8a c0 d6 c4 fc bf 75 b3 f2 3f
       -7.751409 -4.3370986 -1.974757 1.8961016
0002e0 7b 27 27 bf d8 a2 b4 3c 03 a3 27 3e b6 ba 51 40
       -0.6529462 0.022050306 0.16370778 3.277021
0002f0 dd 70 b8 3d 12 79 dc c0 af 78 c5 3f 65 37 b5 bf
       0.09005902 -6.889779 1.5427455 -1.415753
000300 0b c7 ff 3e f8 ae 78 c0 76 d3 09 c0 28 e3 c8 bf
       0.49956545 -3.8856792 -2.1535316 -1.5694323
000310 81 4f 05 c1 f8 df ca 3e 39 14 ff c0 b6 09 04 c0
       -8.33191 0.39624 -7.9712186 -2.0630927
000320 96 3f b5 bf 98 72 d1 c0 d6 05 1c bd 5c 2f 62 c0
       -1.416003 -6.5452385 -0.038091503 -3.5341406
000330 86 e9 16 c0 6b 80 35 c0 81 74 ae c0 96 48 dd bf
       -2.3580031 -2.835963 -5.4517217 -1.7287776
000340 5f e8 65 3f 5f 6c 51 3f aa 1d da bf 22 21 0a 40
       0.89807695 0.81805986 -1.7040303 2.1582723
000350 05 b6 2d bc 07 b0 3c bf 86 6f bd bf 84 61 86 3f
       -0.010602479 -0.73706096 -1.4799659 1.049851
000360 8e ad 3c 3f 93 25 eb c0 ad e6 15 c0 33 e7 87 bf
       0.73702323 -7.3483367 -2.3422043 -1.0617431
000370 0e a6 d7 40 e0 22 38 c0 7e db c8 c0 93 b2 87 40
       6.7390203 -2.8771286 -6.2767935 4.2405486
000380 3d ab 19 bf fa a9 d0 c0 a6 7e f3 bf fa d3 49 be
       -0.60026914 -6.520749 -1.9023025 -0.19709769
000390 98 4d 75 c0 50 4b 99 bf 10 cd 5b c0 62 4d 94 c0
       -3.832861 -1.1976109 -3.434391 -4.634446
0003a0 22 50 39 c0 99 1d af c0 80 f3 52 bf 6e b4 7f c0
       -2.895516 -5.472363 -0.824028 -3.9953876
0003b0 99 fd 54 40 8a 21 0c c0 82 cf 0f c1 19 e6 66 40
       3.3279784 -2.189547 -8.988161 3.607794
0003c0 79 be ba 3f 2e 83 fd 3f 96 f2 aa c0 63 c5 d4 bf
       1.4589378 1.9805658 -5.3421125 -1.6622738
0003d0 a1 e4 bf 3f 71 2e 8c c0 c5 5e 88 40 a2 95 57 c0
       1.4991647 -4.380669 4.2615685 -3.3685079
0003e0 72 05 5a 3e b0 4c cd 3e 9a 7f 98 3f 7c ea c7 bf
       0.2129114 0.4009757 1.1913941 -1.5618434
0003f0 ea 6a ca c0 22 4a ae 40 0d 35 23 3f 64 1e 26 bf
       -6.325551 5.4465494 0.63752824 -0.6489012

bn1.running_var f4 [400]
000000 d1 ae bc 42 26 de 09 43 eb 14 98 42 1b c6 b9 42
       94.34144 137.86777 76.040855 92.886925
000010 5a ee c2 42 78 54 51 42 3b 84 41 42 2b 73 f4 3e
       97.46553 52.33249 48.37913 0.47744116
000020 f0 77 13 43 29 8d 33 42 ea db 84 42 41 e7 30 42
       147.4685 44.88785 66.42952 44.225834
000030 a6 56 0a 42 ee 58 4a 43 97 9f 71 41 6d 48 03 43
       34.584618 202.34738 15.101462 131.28291
000040 25 25 d8 42 45 69 d0 42 46 bd c3 3e 77 f9 c1 42
       108.07255 104.205605 0.38230342 96.987236
000050 63 55 77 42 0f 30 58 42 f2 02 2e 43 9c 8d 42 43
       61.833385 54.046932 174.0115 194.55316
000060 63 9c 15 43 d6 4c 14 42 8a 7c e8 42 75 e0 d0 42
       149.61089 37.075035 116.24324 104.43839
000070 37 66 1b 43 f3 cc c7 42 c5 80 a4 42 cb a2 37 43
       155.39928 99.90029 82.2515 183.63591
000080 95 2a e0 42 78 c7 a4 42 b0 78 af 42 b5 9a b0 42
       112.08317 82.38959 87.73572 88.30216
000090 61 7b 24 3f 50 cc 31 42 49 6d 6b 41 b2 16 51 42
       0.6425076 44.449524 14.714181 52.272163
0000a0 cc ba ab 42 db c4 18 43 63 ce bc 42 87 49 b2 42
       85.86484 152.76897 94.4031 89.14361
0000b0 65 bb 56 42 be 37 ff 41 27 6e 48 42 f6 26 92 42
       53.683002 31.902218 50.10757 73.076096
0000c0 3e c6 a3 42 fe 01 01 42 fe 18 13 43 e7 19 03 43
       81.88719 32.251945 147.09763 131.10118
0000d0 03 63 16 42 06 fa 46 42 3e 09 a3 42 20 c0 63 42
       37.59669 49.744164 81.51805 56.937622
0000e0 40 51 b4 42 0c 73 6b 42 23 8d c4 42 c7 e8 c3 42
       90.15869 58.86235 98.27566 97.95464
0000f0 63 22 9e 42 cf ac 04 42 34 30 15 43 82 cf 5e 42
       79.06716 33.16876 149.1883 55.702644
000100 4d e8 30 43 72 a9 c4 42 dc b3 8f 41 99 86 7d 42
       176.90742 98.33095 17.962822 63.381443
000110 7e 96 95 43 3a e2 38 3e 1b 38 e8 42 17 e3 0f 42
       299.17572 0.18055049 116.10958 35.971767
000120 44 cd 58 42 2e 5e 1b 43 d3 3d 6f 42 00 68 94 42
       54.200455 155.36789 59.810375 74.203125
000130 41 bc 54 43 00 02 7c 42 65 20 97 41 bd d4 40 43
       212.73537 63.001953 18.890818 192.83101
000140 cf 03 a5 42 90 91 02 42 8c 49 93 42 ba 40 7c 42
       82.50744 32.64215 73.64365 63.06321
000150 4e 68 6a 3e 17 db 2c 42 36 21 ae 42 d4 79 05 42
       0.22891352 43.213955 87.064865 33.368973
000160 4f d6 a6 42 b3 48 43 42 85 98 3c 43 74 b2 c5 42
       83.41857 48.820995 188.59578 98.84854
000170 e1 83 e6 42 37 3b 8b 42 bd fa 28 42 eb 6d af 42
       115.257576 69.615654 42.24486 87.71468
000180 d8 12 34 43 0e 3f 7f 42 db 14 68 43 dd d2 7c 43
       180.07361 63.811577 232.08147 252.82368
000190 84 68 ff 41 85 3f 99 42 5b 24 88 42 1e 37 9f 42
       31.926033 76.62406 68.07101 79.60765
0001a0 a3 f6 d0 42 c8 2d 4e 42 3e d3 4d 43 64 e4 74 42
       104.48171 51.54471 205.82516 61.223038
0001b0 f2 b6 31 43 3a d6 98 42 91 0a 20 43 19 68 0d 42
       177.71463 76.41841 160.04128 35.351658
0001c0 c3 85 75 43 12 0c 1b 42 3b 2c 35 41 92 8c 9d 42
       245.5225 38.761787 11.323298 78.77455
0001d0 bf bb d3 41 03 67 8f 42 d7 f6 c8 41 38 84 87 43
       26.466673 71.701195 25.120527 271.03296
0001e0 67 5e 6c 41 79 44 b6 42 11 3b 15 42 b4 ed de 41
       14.773047 91.133736 37.307682 27.866066
0001f0 bb 5e 9b 42 b9 4d 86 42 88 01 96 42 ed b5 4c 42
       77.68502 67.1518 75.00299 51.17766
000200 62 51 ff 42 2e 52 1d 43 00 7b e5 42 e2 8c 22 42
       127.65895 157.32101 114.740234 40.63758
000210 63 80 81 42 08 f4 e6 42 b1 14 83 42 c0 ed 74 42
       64.750755 115.47662 65.54041 61.232178
000220 10 fc 6d 42 8e 67 47 43 e4 d1 fe 40 4d 14 94 43
       59.496155 199.40451 7.9631214 296.1586
000230 c3 ec 14 43 1e ef 77 42 70 0d 93 42 00 34 10 44
       148.92485 61.983513 73.526245 576.8125
000240 6b 56 fa 42 01 1f 27 41 b6 ab d7 42 08 d1 97 42
       125.168785 10.445069 107.83537 75.908264
000250 3f 60 5a 42 b0 10 89 42 5a 1e 8d 41 fe c2 b2 42
       54.59399 68.53259 17.63982 89.380844
000260 b9 42 65 42 e2 5f e2 41 e5 66 41 42 f3 32 ab 42
       57.31516 28.296818 48.350483 85.59951
000270 07 28 7f 42 b2 9c 6e 42 49 5d 01 42 98 cc b0 41
       63.78909 59.653023 32.3411 22.0999
000280 8d b5 d8 42 cf 4d ba 42 06 03 ef 42 61 f0 68 42
       108.35459 93.15197 119.505905 58.234745
000290 f1 0f 6f 42 51 f2 12 43 1d a4 63 42 18 47 01 43
       59.765568 146.94655 56.910267 129.27771
0002a0 80 20 70 42 53 25 dd 41 9d ec 36 42 af f7 a7 42
       60.03174 27.643225 45.731068 83.98376
0002b0 5b 79 85 43 77 98 d8 42 78 b9 71 42 94 7e 0b 42
       266.9481 108.29778 60.43112 34.87361
0002c0 ab 1d d6 42 6d e1 90 41 49 90 f8 41 ef 6c 27 43
       107.057945 18.110071 31.070452 167.42552
0002d0 99 0f 87 42 ce a3 0e 43 ad b6 ec 41 dc b5 a7 41
       67.530464 142.63986 29.589197 20.963799
0002e0 ae 7b 5c 3f e4 25 23 42 0d 3b 98 41 38 01 00 43
       0.8612622 40.787003 19.028833 128.00476
0002f0 03 e0 a8 42 66 44 ee 41 93 36 68 42 b2 f8 c4 42
       84.43752 29.783398 58.053295 98.48573
000300 07 d0 2a 41 a7 3a 6a 42 2e 54 c6 41 a8 70 f7 42
       10.675788 58.557278 24.791103 123.72003
000310 4f c9 ad 42 4d b5 de 41 97 2b 3f 42 5c 73 a1 42
       86.89318 27.838526 47.79257 80.72531
000320 da 9f 67 42 f6 28 b9 42 4f 10 62 3f b9 76 54 42
       57.906105 92.58 0.88306135 53.11594
000330 cb 71 c4 42 7c d7 ac 42 45 be 5d 42 06 db 90 42
       98.22225 86.42087 55.43581 72.42778
000340 5d ea 06 42 55 e1 87 41 c5 53 2f 42 5b a7 5c 42
       33.72887 16.985025 43.831806 55.163433
000350 0c 11 89 40 d2 63 dc 40 48 fe 06 43 3e f9 9c 42
       4.283331 6.887185 134.99329 78.4868
000360 0b 71 45 43 d7 ce b1 42 74 d6 e4 41 83 24 dc 42
       197.44157 88.903984 28.604713 110.07131
000370 15 89 6f 42 94 64 2c 42 d7 bd ca 42 64 a6 bd 42
       59.88387 43.09822 101.37078 94.82498
000380 97 5e c2 42 04 0f c5 42 77 57 8f 42 05 18 15 3f
       97.184746 98.52933 71.67083 0.58239776
000390 cb ce e7 42 47 cb 30 41 6f cc d2 42 04 b1 ad 43
       115.90389 11.049628 105.399284 347.38293
0003a0 2e ec 98 42 23 26 93 42 82 e3 bd 42 f0 0d a6 42
       76.46129 73.574486 94.94435 83.02722
0003b0 bd 0c 8a 43 83 13 81 42 62 46 89 42 c4 41 25 43
       276.09952 64.53811 68.63747 165.2569
0003c0 10 23 26 42 67 b0 cf 41 31 9f b8 42 bf 11 d5 41
       41.53424 25.961134 92.31092 26.633665
0003d0 77 d9 f1 42 10 a2 f3 42 85 40 69 42 8e 60 59 43
       120.924736 121.81653 58.313007 217.37717
0003e0 71 28 63 42 4d 76 91 42 6c 32 40 42 0c c6 a6 42
       56.789494 72.73106 48.04924 83.38681
0003f0 e6 2f 0a 42 50 e7 01 43 e2 c3 40 43 c6 ab 20 43
       34.546776 129.90356 192.76517 160.67099

fc2.weight f4 [300, 404]
000000 fc 17 5f bd 1f 3e 1e bd 3a 6a a9 bd ed 29 8c bd
       -0.054466233 -0.038633462 -0.08272214 -0.06843934
000010 40 14 87 bd 26 75 2a bb 42 e3 06 bd 21 a6 15 bd
       -0.06595659 -0.0026009767 -0.032931574 -0.036535386
000020 7b 41 74 bc 94 1a 55 bb 61 eb c4 3b 2a bf 0d bd
       -0.01490819 -0.0032517063 0.0060095047 -0.034606136
000030 3e 6d f4 3c 04 b4 e8 3c 65 99 de bd 58 bc 96 bd
       0.029837247 0.02840615 -0.108691014 -0.073601425
000040 0c 79 3c bc 53 41 63 bd 13 38 06 3d 55 05 f3 3c
       -0.011503469 -0.05548222 0.03276832 0.029665628
000050 ff 53 cc bc ad 69 86 bd 4f 5b 24 bd e0 40 98 bd
       -0.024942396 -0.06563125 -0.04012614 -0.07434249
000060 70 75 56 bd 98 3a 70 bd 94 28 2a bd 0d dd 0c bc
       -0.05235809 -0.05864963 -0.041542605 -0.0085976245
000070 80 a8 bc 3d 2c da cf bc b3 5a 95 bd 1d 42 54 bd
       0.09211826 -0.025372587 -0.0729269 -0.051820863
000080 ac be b5 bd 81 d2 23 bd 22 c3 c6 bc 20 ea df bc
       -0.088742584 -0.039995674 -0.024262968 -0.02733332
000090 43 8f 59 3d 33 a8 55 3c 4e 91 a0 3c 93 5c 29 bd
       0.05311514 0.01304059 0.019600537 -0.04134805
0000a0 9c 7f dc 3c c2 72 db bc 9b c3 7d bd be 94 5a bd
       0.026916318 -0.02678812 -0.061954122 -0.053364508
0000b0 d5 e6 f3 bb 03 c6 98 bd 1f b8 bd bc 2e 71 f7 3b
       -0.007443289 -0.07459643 -0.023159085 0.007551334
0000c0 ae 18 a2 bc 55 e7 9d 3b 5c 43 9e bc dd e8 7a bc
       -0.019787159 0.0048188367 -0.019319229 -0.015314308
0000d0 d9 00 ab bc 1a f1 35 bc b0 71 c3 bc 9d 2c 6e bc
       -0.020874428 -0.011104846 -0.023857921 -0.014537004
0000e0 1e fc 28 bd f5 ec 01 ba 8e c5 d6 bc 45 41 db 3c
       -0.041256063 -0.0004956269 -0.026217248 0.026764521
0000f0 02 a3 ae 3b 6a d2 15 3c d3 74 94 3c 10 ca fb bb
       0.0053294906 0.009144405 0.018122112 -0.007684
000100 41 c0 41 bd e8 a3 c4 3c a1 22 47 bd e8 87 d1 bc
       -0.04730249 0.024003938 -0.04861701 -0.0255775
000110 d5 fa c4 3c bd 93 00 bc d5 65 f2 3c ae ad 6f bd
       0.024045387 -0.007847724 0.029589573 -0.058515243
000120 8d bc 0f bb 62 b1 92 3c 4a 58 11 bd 59 b0 39 3d
       -0.0021932453 0.017906848 -0.03548459 0.045334194
000130 89 48 5e bd dc ec 1c bc e6 f3 52 3a ca 80 33 3d
       -0.054268394 -0.009577956 0.0008047208 0.043823995
000140 5a 1f d3 bc f2 9a 42 bc 9f b0 33 bd ba 77 4f bd
       -0.025771786 -0.011877762 -0.04386961 -0.05065129
000150 7f c4 56 bd 60 d1 8b bd 23 90 98 bc 43 f0 59 bc
       -0.052433487 -0.068270445 -0.018623417 -0.013301912
000160 fc 14 b4 bd 2f 70 9c 3c 56 22 51 3d 91 31 e6 3c
       -0.08793065 0.019096462 0.051058136 0.028099807
000170 49 ac 60 bc 6c d3 c0 bc b8 2d 0d bc f1 18 6e 3c
       -0.013712951 -0.023538314 -0.008616857 0.014532314
000180 31 b5 6e bd fc 6c 09 bd 8f a4 22 3c 19 df d7 3b
       -0.058278266 -0.0335512 0.009926929 0.0065878746
000190 3b 35 0e 3c 20 98 ee 3c 78 c3 06 bd a1 4f f0 3b
       0.008679683 0.029125273 -0.032901257 0.0073337113
0001a0 c7 02 fd bc d7 eb 08 3d 6f e1 f0 bc c0 22 bd bd
       -0.030885113 0.03342804 -0.02940437 -0.09235144
0001b0 ee 65 cc 3b 17 b8 85 3c 75 35 87 bd a6 b7 02 3c
       0.006237737 0.016323132 -0.06601993 0.0079783555
0001c0 28 47 a8 bd 25 41 51 3c ca 79 b5 bd 7c 50 11 bc
       -0.08216697 0.012771879 -0.0886112 -0.008869287
0001d0 03 8b 53 bd 21 f4 5c bd 53 44 22 3c 5e fd 2e bd
       -0.051646244 -0.053943757 0.009903985 -0.0427221
0001e0 94 27 d7 bc 35 a0 4c bc 1c 30 1a 3d 27 45 86 bd
       -0.02626399 -0.012489368 0.037643537 -0.065561585
0001f0 d0 cb b0 bd fc 31 ff 3c 0b 7c 96 bc 19 0a ec b7
       -0.08632624 0.031151764 -0.018369695 -2.8138094e-05
000200 81 7d 4e bd 55 ac 67 b9 45 24 8c 3c b7 80 57 bd
       -0.05041266 -0.00022094075 0.017107138 -0.052612986
000210 ab 1b ab 3c b5 90 44 bd a2 0b c2 bd 7a 9e d4 bc
       0.020887217 -0.047989566 -0.09474875 -0.025954474
000220 0e 76 46 bd ed ba 82 3d 96 33 bd bc ad 5c 1a ba
       -0.04845243 0.063833095 -0.023095887 -0.00058884436
000230 4a 50 a1 3b 6e 14 8d 3c 6e 0c 7a bb b4 8b 6c bd
       0.0049229013 0.017221656 -0.0038154381 -0.05775042
000240 57 c3 76 bd fc 22 06 bd 52 b9 7e bd ef 1f 37 bd
       -0.060244884 -0.032748207 -0.062188454 -0.04470819
000250 ae 7b 48 bd ee 84 dc 3c 83 57 2d bd e3 93 09 bc
       -0.048946075 0.026918855 -0.042319786 -0.008397075
000260 0d 5e c2 3c 3f d6 18 bd b9 e1 cd bb ad 25 42 3d
       0.023726488 -0.037313696 -0.0062830118 0.04739921
000270 11 2a 0c 3c 1d 83 a1 bc de 48 b8 bc 47 54 92 bd
       0.008554951 -0.01971584 -0.022495683 -0.07144981
000280 3e a8 94 3c a0 16 95 bd 7b d5 be bd dc 31 f8 bc
       0.01814663 -0.07279706 -0.09318062 -0.030297212
000290 08 c3 70 3d 63 17 00 3d 7d cf cc 3b 56 e7 dc 3c
       0.058779746 0.031272303 0.0062503205 0.026965778
0002a0 b8 8d ac bb 61 1d 80 bd b7 fb 3c bd 51 a6 b9 bc
       -0.0052659176 -0.062556036 -0.04613849 -0.022662314
0002b0 42 9a cc bc 7b ac 24 bd 39 62 2f bd e1 0c 92 bd
       -0.0249759 -0.040203553 -0.04281828 -0.07131363
0002c0 a4 e3 36 bd 44 d1 75 3d 8f 47 85 bd 60 29 8c bb
       -0.04465069 0.060014024 -0.06507789 -0.004277393
0002d0 00 3c 4b 3c 71 8c cf bd 2b 47 ab bd 27 48 ab bd
       0.012404442 -0.10134209 -0.083631836 -0.08363371
0002e0 00 02 33 3d 14 ff b4 bc 39 7a 2f bd a3 f9 7f bb
       0.04370308 -0.022094287 -0.04284117 -0.0039058707
0002f0 cd 87 24 bd 00 2c 62 bd f6 0c 19 bc ba 2f aa bc
       -0.040168572 -0.055217743 -0.009341469 -0.02077471
000300 d5 bc 90 bd 76 fb 36 3c 5c 25 02 3c f3 10 cf 3b
       -0.07067267 0.011168351 0.0079434775 0.006319159
000310 99 d0 b3 bc ef 61 1d 3c 90 2b 01 be 38 8c dc 3c
       -0.021950053 0.009605869 -0.12614274 0.02692233
000320 9f 06 19 bd 9d 3a 13 bd 55 c8 aa 3c 59 72 72 bc
       -0.03735983 -0.03594457 0.020847479 -0.01479777
000330 25 06 09 bd f6 cf 9b bd 4c ca 9d bd 87 f2 01 3c
       -0.033453126 -0.07608025 -0.07704601 0.007931358
000340 68 5d 1d bd fc 15 21 3c 8e bb b7 bd e5 64 a8 bd
       -0.038419157 0.009831902 -0.0897132 -0.08222369
000350 95 53 d9 b8 20 c9 33 bc 34 79 d0 bc 44 59 b5 bd
       -0.00010362935 -0.010973245 -0.02544842 -0.08854917
000360 6e 6c 96 bd 12 85 8a bd e4 17 77 3b 0a 81 72 bd
       -0.073449 -0.067636624 0.003770345 -0.059205092
000370 50 e9 f2 bb 52 bf 3e bc 93 44 5f bd 98 56 0b be
       -0.007413067 -0.011642294 -0.054508757 -0.13607252
000380 cf f4 f1 bc 23 c4 47 3c 10 b3 9d 3c 4e 54 4d 3d
       -0.02953568 0.012192759 0.019250423 0.050129227
000390 1d 49 d2 3c ac 6c 11 bd 5a b2 75 bd 1b b6 07 bd
       0.025669629 -0.03550403 -0.059984542 -0.033132654
0003a0 29 a7 fd bc e7 d4 0f 3d 35 8b 81 bd 3f 3c 51 3c
       -0.030963497 0.03511515 -0.0632538 0.012770711
0003b0 a9 7d 54 bb 43 8b 6b bd 80 a1 bf bb c3 17 b5 bd
       -0.0032423532 -0.057505857 -0.0058481097 -0.08842423
0003c0 e2 79 be 3c b0 e6 a5 3c f3 9a 1b 3d 17 b9 92 bd
       0.023251478 0.020251602 0.037989568 -0.07164209
0003d0 21 b1 80 bc f6 8e 87 bd 2d b9 ab bc 82 6b 88 bd
       -0.015709462 -0.066190645 -0.020962322 -0.066611305
0003e0 fe 9e 9d bc de de 61 bd 4e 8e 4b bd a3 57 b5 3c
       -0.019240852 -0.055144183 -0.04969626 0.022136515
0003f0 4f 31 5f bc 11 06 5d bb 43 a0 c3 bc c8 fc 28 bd
       -0.013622596 -0.003372554 -0.02388013 -0.041256696
